node {
  name: "global_step/Initializer/zeros"
  op: "Const"
  attr {
    key: "_class"
    value {
      list {
        s: "loc:@global_step"
      }
    }
  }
  attr {
    key: "_output_shapes"
    value {
      list {
        shape {
        }
      }
    }
  }
  attr {
    key: "dtype"
    value {
      type: DT_INT64
    }
  }
  attr {
    key: "value"
    value {
      tensor {
        dtype: DT_INT64
        tensor_shape {
        }
        int64_val: 0
      }
    }
  }
}
node {
  name: "global_step"
  op: "VariableV2"
  attr {
    key: "_class"
    value {
      list {
        s: "loc:@global_step"
      }
    }
  }
  attr {
    key: "_output_shapes"
    value {
      list {
        shape {
        }
      }
    }
  }
  attr {
    key: "container"
    value {
      s: ""
    }
  }
  attr {
    key: "dtype"
    value {
      type: DT_INT64
    }
  }
  attr {
    key: "shape"
    value {
      shape {
      }
    }
  }
  attr {
    key: "shared_name"
    value {
      s: ""
    }
  }
}
node {
  name: "global_step/Assign"
  op: "Assign"
  input: "global_step"
  input: "global_step/Initializer/zeros"
  attr {
    key: "T"
    value {
      type: DT_INT64
    }
  }
  attr {
    key: "_class"
    value {
      list {
        s: "loc:@global_step"
      }
    }
  }
  attr {
    key: "_output_shapes"
    value {
      list {
        shape {
        }
      }
    }
  }
  attr {
    key: "use_locking"
    value {
      b: true
    }
  }
  attr {
    key: "validate_shape"
    value {
      b: true
    }
  }
}
node {
  name: "global_step/read"
  op: "Identity"
  input: "global_step"
  attr {
    key: "T"
    value {
      type: DT_INT64
    }
  }
  attr {
    key: "_class"
    value {
      list {
        s: "loc:@global_step"
      }
    }
  }
  attr {
    key: "_output_shapes"
    value {
      list {
        shape {
        }
      }
    }
  }
}
node {
  name: "global_step/IsVariableInitialized"
  op: "IsVariableInitialized"
  input: "global_step"
  attr {
    key: "_class"
    value {
      list {
        s: "loc:@global_step"
      }
    }
  }
  attr {
    key: "_output_shapes"
    value {
      list {
        shape {
        }
      }
    }
  }
  attr {
    key: "dtype"
    value {
      type: DT_INT64
    }
  }
}
node {
  name: "global_step/cond/Switch"
  op: "Switch"
  input: "global_step/IsVariableInitialized"
  input: "global_step/IsVariableInitialized"
  attr {
    key: "T"
    value {
      type: DT_BOOL
    }
  }
  attr {
    key: "_output_shapes"
    value {
      list {
        shape {
        }
        shape {
        }
      }
    }
  }
}
node {
  name: "global_step/cond/switch_t"
  op: "Identity"
  input: "global_step/cond/Switch:1"
  attr {
    key: "T"
    value {
      type: DT_BOOL
    }
  }
  attr {
    key: "_output_shapes"
    value {
      list {
        shape {
        }
      }
    }
  }
}
node {
  name: "global_step/cond/switch_f"
  op: "Identity"
  input: "global_step/cond/Switch"
  attr {
    key: "T"
    value {
      type: DT_BOOL
    }
  }
  attr {
    key: "_output_shapes"
    value {
      list {
        shape {
        }
      }
    }
  }
}
node {
  name: "global_step/cond/pred_id"
  op: "Identity"
  input: "global_step/IsVariableInitialized"
  attr {
    key: "T"
    value {
      type: DT_BOOL
    }
  }
  attr {
    key: "_output_shapes"
    value {
      list {
        shape {
        }
      }
    }
  }
}
node {
  name: "global_step/cond/read"
  op: "Identity"
  input: "global_step/cond/read/Switch:1"
  attr {
    key: "T"
    value {
      type: DT_INT64
    }
  }
  attr {
    key: "_output_shapes"
    value {
      list {
        shape {
        }
      }
    }
  }
}
node {
  name: "global_step/cond/read/Switch"
  op: "RefSwitch"
  input: "global_step"
  input: "global_step/cond/pred_id"
  attr {
    key: "T"
    value {
      type: DT_INT64
    }
  }
  attr {
    key: "_class"
    value {
      list {
        s: "loc:@global_step"
      }
    }
  }
  attr {
    key: "_output_shapes"
    value {
      list {
        shape {
        }
        shape {
        }
      }
    }
  }
}
node {
  name: "global_step/cond/Switch_1"
  op: "Switch"
  input: "global_step/Initializer/zeros"
  input: "global_step/cond/pred_id"
  attr {
    key: "T"
    value {
      type: DT_INT64
    }
  }
  attr {
    key: "_class"
    value {
      list {
        s: "loc:@global_step"
      }
    }
  }
  attr {
    key: "_output_shapes"
    value {
      list {
        shape {
        }
        shape {
        }
      }
    }
  }
}
node {
  name: "global_step/cond/Merge"
  op: "Merge"
  input: "global_step/cond/Switch_1"
  input: "global_step/cond/read"
  attr {
    key: "N"
    value {
      i: 2
    }
  }
  attr {
    key: "T"
    value {
      type: DT_INT64
    }
  }
  attr {
    key: "_output_shapes"
    value {
      list {
        shape {
        }
        shape {
        }
      }
    }
  }
}
node {
  name: "global_step/add/y"
  op: "Const"
  attr {
    key: "_output_shapes"
    value {
      list {
        shape {
        }
      }
    }
  }
  attr {
    key: "dtype"
    value {
      type: DT_INT64
    }
  }
  attr {
    key: "value"
    value {
      tensor {
        dtype: DT_INT64
        tensor_shape {
        }
        int64_val: 0
      }
    }
  }
}
node {
  name: "global_step/add"
  op: "Add"
  input: "global_step/cond/Merge"
  input: "global_step/add/y"
  attr {
    key: "T"
    value {
      type: DT_INT64
    }
  }
  attr {
    key: "_output_shapes"
    value {
      list {
        shape {
        }
      }
    }
  }
}
node {
  name: "tensors/component_0"
  op: "Const"
  device: "/device:CPU:0"
  attr {
    key: "_output_shapes"
    value {
      list {
        shape {
          dim {
            size: 2262
          }
        }
      }
    }
  }
  attr {
    key: "dtype"
    value {
      type: DT_DOUBLE
    }
  }
  attr {
    key: "value"
    value {
      tensor {
        dtype: DT_DOUBLE
        tensor_shape {
          dim {
            size: 2262
          }
        }
        tensor_content: "…"
      }
    }
  }
}
node {
  name: "tensors/component_1"
  op: "Const"
  device: "/device:CPU:0"
  attr {
    key: "_output_shapes"
    value {
      list {
        shape {
          dim {
            size: 2262
          }
        }
      }
    }
  }
  attr {
    key: "dtype"
    value {
      type: DT_DOUBLE
    }
  }
  attr {
    key: "value"
    value {
      tensor {
        dtype: DT_DOUBLE
        tensor_shape {
          dim {
            size: 2262
          }
        }
        tensor_content: "…"
      }
    }
  }
}
node {
  name: "tensors/component_2"
  op: "Const"
  device: "/device:CPU:0"
  attr {
    key: "_output_shapes"
    value {
      list {
        shape {
          dim {
            size: 2262
          }
        }
      }
    }
  }
  attr {
    key: "dtype"
    value {
      type: DT_DOUBLE
    }
  }
  attr {
    key: "value"
    value {
      tensor {
        dtype: DT_DOUBLE
        tensor_shape {
          dim {
            size: 2262
          }
        }
        tensor_content: "…"
      }
    }
  }
}
node {
  name: "tensors/component_3"
  op: "Const"
  device: "/device:CPU:0"
  attr {
    key: "_output_shapes"
    value {
      list {
        shape {
          dim {
            size: 2262
          }
        }
      }
    }
  }
  attr {
    key: "dtype"
    value {
      type: DT_DOUBLE
    }
  }
  attr {
    key: "value"
    value {
      tensor {
        dtype: DT_DOUBLE
        tensor_shape {
          dim {
            size: 2262
          }
        }
        tensor_content: "…"
      }
    }
  }
}
node {
  name: "tensors/component_4"
  op: "Const"
  device: "/device:CPU:0"
  attr {
    key: "_output_shapes"
    value {
      list {
        shape {
          dim {
            size: 2262
          }
        }
      }
    }
  }
  attr {
    key: "dtype"
    value {
      type: DT_STRING
    }
  }
  attr {
    key: "value"
    value {
      tensor {
        dtype: DT_STRING
        tensor_shape {
          dim {
            size: 2262
          }
        }
        string_val: "1"
        string_val: "1"
        string_val: "2"
        string_val: "2"
        string_val: "1"
        string_val: "1"
        string_val: "2"
        string_val: "1"
        string_val: "2"
        string_val: "2"
        string_val: "2"
        string_val: "2"
        string_val: "1"
        string_val: "1"
        string_val: "2"
        string_val: "1"
        string_val: "1"
        string_val: "2"
        string_val: "2"
        string_val: "2"
        string_val: "1"
        string_val: "1"
        string_val: "2"
        string_val: "2"
        string_val: "2"
        string_val: "1"
        string_val: "2"
        string_val: "1"
        string_val: "2"
        string_val: "1"
        string_val: "2"
        string_val: "1"
        string_val: "1"
        string_val: "2"
        string_val: "2"
        string_val: "1"
        string_val: "1"
        string_val: "1"
        string_val: "2"
        string_val: "1"
        string_val: "1"
        string_val: "2"
        string_val: "2"
        string_val: "1"
        string_val: "2"
        string_val: "2"
        string_val: "2"
        string_val: "1"
        string_val: "2"
        string_val: "2"
        string_val: "2"
        string_val: "1"
        string_val: "2"
        string_val: "2"
        string_val: "2"
        string_val: "2"
        string_val: "1"
        string_val: "2"
        string_val: "1"
        string_val: "2"
        string_val: "2"
        string_val: "2"
        string_val: "1"
        string_val: "2"
        string_val: "2"
        string_val: "2"
        string_val: "2"
        string_val: "2"
        string_val: "1"
        string_val: "1"
        string_val: "1"
        string_val: "2"
        string_val: "2"
        string_val: "1"
        string_val: "2"
        string_val: "2"
        string_val: "1"
        string_val: "2"
        string_val: "2"
        string_val: "1"
        string_val: "2"
        string_val: "1"
        string_val: "2"
        string_val: "2"
        string_val: "2"
        string_val: "2"
        string_val: "2"
        string_val: "1"
        string_val: "1"
        string_val: "1"
        string_val: "1"
        string_val: "1"
        string_val: "1"
        string_val: "1"
        string_val: "1"
        string_val: "1"
        string_val: "1"
        string_val: "1"
        string_val: "2"
        string_val: "2"
        string_val: "1"
        string_val: "2"
        string_val: "2"
        string_val: "2"
        string_val: "1"
        string_val: "1"
        string_val: "1"
        string_val: "1"
        string_val: "2"
        string_val: "2"
        string_val: "2"
        string_val: "1"
        string_val: "2"
        string_val: "2"
        string_val: "1"
        string_val: "1"
        string_val: "2"
        string_val: "2"
        string_val: "2"
        string_val: "2"
        string_val: "1"
        string_val: "1"
        string_val: "2"
        string_val: "1"
        string_val: "2"
        string_val: "2"
        string_val: "1"
        string_val: "2"
        string_val: "1"
        string_val: "2"
        string_val: "1"
        string_val: "1"
        string_val: "2"
        string_val: "2"
        string_val: "2"
        string_val: "2"
        string_val: "1"
        string_val: "1"
        string_val: "2"
        string_val: "1"
        string_val: "1"
        string_val: "1"
        string_val: "1"
        string_val: "2"
        string_val: "1"
        string_val: "1"
        string_val: "1"
        string_val: "2"
        string_val: "2"
        string_val: "2"
        string_val: "1"
        string_val: "2"
        string_val: "2"
        string_val: "1"
        string_val: "2"
        string_val: "2"
        string_val: "1"
        string_val: "2"
        string_val: "1"
        string_val: "2"
        string_val: "2"
        string_val: "1"
        string_val: "2"
        string_val: "2"
        string_val: "1"
        string_val: "2"
        string_val: "2"
        string_val: "2"
        string_val: "1"
        string_val: "1"
        string_val: "1"
        string_val: "2"
        string_val: "2"
        string_val: "2"
        string_val: "2"
        string_val: "1"
        string_val: "1"
        string_val: "2"
        string_val: "1"
        string_val: "1"
        string_val: "2"
        string_val: "1"
        string_val: "2"
        string_val: "1"
        string_val: "1"
        string_val: "2"
        string_val: "1"
        string_val: "1"
        string_val: "1"
        string_val: "2"
        string_val: "2"
        string_val: "2"
        string_val: "2"
        string_val: "2"
        string_val: "2"
        string_val: "2"
        string_val: "1"
        string_val: "1"
        string_val: "1"
        string_val: "2"
        string_val: "1"
        string_val: "1"
        string_val: "2"
        string_val: "2"
        string_val: "1"
        string_val: "1"
        string_val: "1"
        string_val: "1"
        string_val: "2"
        string_val: "1"
        string_val: "2"
        string_val: "1"
        string_val: "2"
        string_val: "2"
        string_val: "1"
        string_val: "2"
        string_val: "1"
        string_val: "2"
        string_val: "1"
        string_val: "1"
        string_val: "2"
        string_val: "1"
        string_val: "2"
        string_val: "1"
        string_val: "1"
        string_val: "1"
        string_val: "1"
        string_val: "2"
        string_val: "2"
        string_val: "2"
        string_val: "2"
        string_val: "2"
        string_val: "2"
        string_val: "2"
        string_val: "2"
        string_val: "2"
        string_val: "1"
        string_val: "2"
        string_val: "1"
        string_val: "2"
        string_val: "2"
        string_val: "1"
        string_val: "1"
        string_val: "2"
        string_val: "1"
        string_val: "1"
        string_val: "2"
        string_val: "2"
        string_val: "1"
        string_val: "2"
        string_val: "2"
        string_val: "2"
        string_val: "1"
        string_val: "2"
        string_val: "1"
        string_val: "2"
        string_val: "2"
        string_val: "2"
        string_val: "2"
        string_val: "1"
        string_val: "2"
        string_val: "1"
        string_val: "2"
        string_val: "1"
        string_val: "1"
        string_val: "1"
        string_val: "2"
        string_val: "1"
        string_val: "2"
        string_val: "2"
        string_val: "2"
        string_val: "2"
        string_val: "1"
        string_val: "2"
        string_val: "2"
        string_val: "1"
        string_val: "1"
        string_val: "2"
        string_val: "1"
        string_val: "2"
        string_val: "2"
        string_val: "2"
        string_val: "1"
        string_val: "1"
        string_val: "2"
        string_val: "1"
        string_val: "1"
        string_val: "1"
        string_val: "1"
        string_val: "1"
        string_val: "1"
        string_val: "1"
        string_val: "2"
        string_val: "2"
        string_val: "2"
        string_val: "1"
        string_val: "1"
        string_val: "2"
        string_val: "1"
        string_val: "1"
        string_val: "1"
        string_val: "2"
        string_val: "1"
        string_val: "1"
        string_val: "1"
        string_val: "2"
        string_val: "1"
        string_val: "2"
        string_val: "2"
        string_val: "2"
        string_val: "1"
        string_val: "2"
        string_val: "2"
        string_val: "1"
        string_val: "2"
        string_val: "2"
        string_val: "1"
        string_val: "2"
        string_val: "1"
        string_val: "1"
        string_val: "2"
        string_val: "1"
        string_val: "1"
        string_val: "2"
        string_val: "2"
        string_val: "1"
        string_val: "1"
        string_val: "2"
        string_val: "2"
        string_val: "1"
        string_val: "1"
        string_val: "2"
        string_val: "2"
        string_val: "1"
        string_val: "2"
        string_val: "1"
        string_val: "2"
        string_val: "2"
        string_val: "2"
        string_val: "1"
        string_val: "1"
        string_val: "1"
        string_val: "1"
        string_val: "1"
        string_val: "1"
        string_val: "2"
        string_val: "1"
        string_val: "1"
        string_val: "2"
        string_val: "2"
        string_val: "1"
        string_val: "2"
        string_val: "1"
        string_val: "2"
        string_val: "2"
        string_val: "2"
        string_val: "1"
        string_val: "1"
        string_val: "1"
        string_val: "1"
        string_val: "2"
        string_val: "2"
        string_val: "2"
        string_val: "1"
        string_val: "2"
        string_val: "1"
        string_val: "2"
        string_val: "2"
        string_val: "2"
        string_val: "1"
        string_val: "2"
        string_val: "1"
        string_val: "1"
        string_val: "1"
        string_val: "1"
        string_val: "2"
        string_val: "2"
        string_val: "2"
        string_val: "2"
        string_val: "1"
        string_val: "2"
        string_val: "1"
        string_val: "2"
        string_val: "2"
        string_val: "1"
        string_val: "1"
        string_val: "2"
        string_val: "2"
        string_val: "1"
        string_val: "1"
        string_val: "2"
        string_val: "1"
        string_val: "2"
        string_val: "2"
        string_val: "1"
        string_val: "1"
        string_val: "1"
        string_val: "2"
        string_val: "1"
        string_val: "2"
        string_val: "2"
        string_val: "2"
        string_val: "2"
        string_val: "2"
        string_val: "2"
        string_val: "2"
        string_val: "1"
        string_val: "2"
        string_val: "2"
        string_val: "2"
        string_val: "1"
        string_val: "1"
        string_val: "2"
        string_val: "2"
        string_val: "2"
        string_val: "2"
        string_val: "1"
        string_val: "1"
        string_val: "2"
        string_val: "1"
        string_val: "1"
        string_val: "1"
        string_val: "1"
        string_val: "2"
        string_val: "1"
        string_val: "1"
        string_val: "2"
        string_val: "1"
        string_val: "2"
        string_val: "2"
        string_val: "1"
        string_val: "2"
        string_val: "2"
        string_val: "1"
        string_val: "2"
        string_val: "2"
        string_val: "2"
        string_val: "2"
        string_val: "1"
        string_val: "1"
        string_val: "2"
        string_val: "2"
        string_val: "2"
        string_val: "1"
        string_val: "2"
        string_val: "2"
        string_val: "1"
        string_val: "1"
        string_val: "1"
        string_val: "2"
        string_val: "1"
        string_val: "1"
        string_val: "2"
        string_val: "1"
        string_val: "1"
        string_val: "1"
        string_val: "2"
        string_val: "2"
        string_val: "2"
        string_val: "2"
        string_val: "2"
        string_val: "1"
        string_val: "2"
        string_val: "2"
        string_val: "2"
        string_val: "2"
        string_val: "2"
        string_val: "1"
        string_val: "1"
        string_val: "2"
        string_val: "2"
        string_val: "1"
        string_val: "1"
        string_val: "1"
        string_val: "2"
        string_val: "2"
        string_val: "1"
        string_val: "1"
        string_val: "2"
        string_val: "2"
        string_val: "1"
        string_val: "1"
        string_val: "1"
        string_val: "2"
        string_val: "1"
        string_val: "2"
        string_val: "1"
        string_val: "1"
        string_val: "2"
        string_val: "1"
        string_val: "2"
        string_val: "2"
        string_val: "2"
        string_val: "2"
        string_val: "1"
        string_val: "1"
        string_val: "2"
        string_val: "2"
        string_val: "1"
        string_val: "2"
        string_val: "1"
        string_val: "2"
        string_val: "2"
        string_val: "1"
        string_val: "1"
        string_val: "2"
        string_val: "1"
        string_val: "2"
        string_val: "2"
        string_val: "1"
        string_val: "2"
        string_val: "1"
        string_val: "2"
        string_val: "1"
        string_val: "2"
        string_val: "1"
        string_val: "1"
        string_val: "1"
        string_val: "1"
        string_val: "1"
        string_val: "2"
        string_val: "2"
        string_val: "2"
        string_val: "1"
        string_val: "2"
        string_val: "2"
        string_val: "2"
        string_val: "1"
        string_val: "2"
        string_val: "1"
        string_val: "1"
        string_val: "2"
        string_val: "2"
        string_val: "2"
        string_val: "2"
        string_val: "2"
        string_val: "2"
        string_val: "1"
        string_val: "1"
        string_val: "2"
        string_val: "2"
        string_val: "1"
        string_val: "2"
        string_val: "2"
        string_val: "2"
        string_val: "2"
        string_val: "1"
        string_val: "2"
        string_val: "2"
        string_val: "1"
        string_val: "2"
        string_val: "1"
        string_val: "2"
        string_val: "1"
        string_val: "1"
        string_val: "2"
        string_val: "2"
        string_val: "1"
        string_val: "2"
        string_val: "2"
        string_val: "2"
        string_val: "1"
        string_val: "1"
        string_val: "2"
        string_val: "1"
        string_val: "2"
        string_val: "1"
        string_val: "2"
        string_val: "2"
        string_val: "1"
        string_val: "2"
        string_val: "2"
        string_val: "2"
        string_val: "2"
        string_val: "1"
        string_val: "2"
        string_val: "1"
        string_val: "2"
        string_val: "2"
        string_val: "1"
        string_val: "2"
        string_val: "1"
        string_val: "2"
        string_val: "1"
        string_val: "1"
        string_val: "1"
        string_val: "1"
        string_val: "2"
        string_val: "2"
        string_val: "2"
        string_val: "1"
        string_val: "2"
        string_val: "2"
        string_val: "1"
        string_val: "1"
        string_val: "1"
        string_val: "1"
        string_val: "1"
        string_val: "1"
        string_val: "2"
        string_val: "2"
        string_val: "1"
        string_val: "2"
        string_val: "1"
        string_val: "2"
        string_val: "2"
        string_val: "2"
        string_val: "2"
        string_val: "1"
        string_val: "2"
        string_val: "1"
        string_val: "1"
        string_val: "2"
        string_val: "1"
        string_val: "2"
        string_val: "1"
        string_val: "2"
        string_val: "1"
        string_val: "2"
        string_val: "1"
        string_val: "2"
        string_val: "2"
        string_val: "2"
        string_val: "2"
        string_val: "1"
        string_val: "2"
        string_val: "2"
        string_val: "1"
        string_val: "1"
        string_val: "1"
        string_val: "1"
        string_val: "2"
        string_val: "1"
        string_val: "2"
        string_val: "1"
        string_val: "1"
        string_val: "2"
        string_val: "2"
        string_val: "2"
        string_val: "2"
        string_val: "1"
        string_val: "1"
        string_val: "1"
        string_val: "1"
        string_val: "2"
        string_val: "1"
        string_val: "2"
        string_val: "1"
        string_val: "2"
        string_val: "1"
        string_val: "2"
        string_val: "2"
        string_val: "1"
        string_val: "2"
        string_val: "1"
        string_val: "1"
        string_val: "1"
        string_val: "2"
        string_val: "2"
        string_val: "1"
        string_val: "1"
        string_val: "2"
        string_val: "1"
        string_val: "1"
        string_val: "1"
        string_val: "2"
        string_val: "2"
        string_val: "2"
        string_val: "1"
        string_val: "1"
        string_val: "1"
        string_val: "1"
        string_val: "1"
        string_val: "1"
        string_val: "2"
        string_val: "1"
        string_val: "2"
        string_val: "1"
        string_val: "2"
        string_val: "1"
        string_val: "1"
        string_val: "1"
        string_val: "1"
        string_val: "1"
        string_val: "1"
        string_val: "2"
        string_val: "2"
        string_val: "1"
        string_val: "2"
        string_val: "1"
        string_val: "1"
        string_val: "2"
        string_val: "2"
        string_val: "1"
        string_val: "1"
        string_val: "1"
        string_val: "2"
        string_val: "2"
        string_val: "2"
        string_val: "1"
        string_val: "1"
        string_val: "2"
        string_val: "2"
        string_val: "1"
        string_val: "2"
        string_val: "2"
        string_val: "2"
        string_val: "1"
        string_val: "1"
        string_val: "2"
        string_val: "1"
        string_val: "1"
        string_val: "1"
        string_val: "1"
        string_val: "1"
        string_val: "2"
        string_val: "1"
        string_val: "1"
        string_val: "2"
        string_val: "1"
        string_val: "1"
        string_val: "2"
        string_val: "2"
        string_val: "2"
        string_val: "2"
        string_val: "1"
        string_val: "1"
        string_val: "2"
        string_val: "1"
        string_val: "2"
        string_val: "1"
        string_val: "2"
        string_val: "2"
        string_val: "1"
        string_val: "2"
        string_val: "2"
        string_val: "2"
        string_val: "1"
        string_val: "2"
        string_val: "1"
        string_val: "2"
        string_val: "1"
        string_val: "2"
        string_val: "1"
        string_val: "1"
        string_val: "1"
        string_val: "1"
        string_val: "1"
        string_val: "1"
        string_val: "1"
        string_val: "2"
        string_val: "1"
        string_val: "2"
        string_val: "2"
        string_val: "1"
        string_val: "1"
        string_val: "1"
        string_val: "2"
        string_val: "1"
        string_val: "2"
        string_val: "1"
        string_val: "1"
        string_val: "1"
        string_val: "2"
        string_val: "2"
        string_val: "2"
        string_val: "2"
        string_val: "2"
        string_val: "1"
        string_val: "1"
        string_val: "2"
        string_val: "1"
        string_val: "1"
        string_val: "1"
        string_val: "2"
        string_val: "1"
        string_val: "1"
        string_val: "1"
        string_val: "1"
        string_val: "2"
        string_val: "2"
        string_val: "1"
        string_val: "1"
        string_val: "2"
        string_val: "2"
        string_val: "2"
        string_val: "2"
        string_val: "2"
        string_val: "1"
        string_val: "1"
        string_val: "1"
        string_val: "1"
        string_val: "2"
        string_val: "2"
        string_val: "2"
        string_val: "1"
        string_val: "1"
        string_val: "1"
        string_val: "1"
        string_val: "1"
        string_val: "1"
        string_val: "1"
        string_val: "1"
        string_val: "1"
        string_val: "1"
        string_val: "1"
        string_val: "2"
        string_val: "1"
        string_val: "2"
        string_val: "2"
        string_val: "2"
        string_val: "1"
        string_val: "2"
        string_val: "1"
        string_val: "2"
        string_val: "2"
        string_val: "2"
        string_val: "1"
        string_val: "1"
        string_val: "1"
        string_val: "1"
        string_val: "2"
        string_val: "1"
        string_val: "1"
        string_val: "2"
        string_val: "1"
        string_val: "2"
        string_val: "1"
        string_val: "1"
        string_val: "1"
        string_val: "2"
        string_val: "2"
        string_val: "1"
        string_val: "2"
        string_val: "2"
        string_val: "2"
        string_val: "1"
        string_val: "2"
        string_val: "2"
        string_val: "1"
        string_val: "1"
        string_val: "2"
        string_val: "1"
        string_val: "1"
        string_val: "1"
        string_val: "1"
        string_val: "2"
        string_val: "2"
        string_val: "1"
        string_val: "2"
        string_val: "2"
        string_val: "2"
        string_val: "2"
        string_val: "1"
        string_val: "1"
        string_val: "2"
        string_val: "1"
        string_val: "2"
        string_val: "1"
        string_val: "2"
        string_val: "2"
        string_val: "2"
        string_val: "2"
        string_val: "1"
        string_val: "2"
        string_val: "1"
        string_val: "2"
        string_val: "1"
        string_val: "2"
        string_val: "1"
        string_val: "1"
        string_val: "2"
        string_val: "1"
        string_val: "2"
        string_val: "1"
        string_val: "2"
        string_val: "2"
        string_val: "1"
        string_val: "2"
        string_val: "1"
        string_val: "1"
        string_val: "1"
        string_val: "1"
        string_val: "1"
        string_val: "1"
        string_val: "1"
        string_val: "2"
        string_val: "1"
        string_val: "1"
        string_val: "1"
        string_val: "1"
        string_val: "2"
        string_val: "2"
        string_val: "1"
        string_val: "2"
        string_val: "1"
        string_val: "1"
        string_val: "1"
        string_val: "1"
        string_val: "1"
        string_val: "1"
        string_val: "1"
        string_val: "1"
        string_val: "1"
        string_val: "2"
        string_val: "2"
        string_val: "1"
        string_val: "2"
        string_val: "1"
        string_val: "2"
        string_val: "1"
        string_val: "2"
        string_val: "2"
        string_val: "1"
        string_val: "1"
        string_val: "2"
        string_val: "2"
        string_val: "2"
        string_val: "1"
        string_val: "2"
        string_val: "1"
        string_val: "2"
        string_val: "1"
        string_val: "2"
        string_val: "1"
        string_val: "1"
        string_val: "1"
        string_val: "2"
        string_val: "2"
        string_val: "1"
        string_val: "2"
        string_val: "2"
        string_val: "1"
        string_val: "1"
        string_val: "2"
        string_val: "1"
        string_val: "1"
        string_val: "1"
        string_val: "1"
        string_val: "1"
        string_val: "1"
        string_val: "2"
        string_val: "1"
        string_val: "2"
        string_val: "1"
        string_val: "2"
        string_val: "2"
        string_val: "2"
        string_val: "2"
        string_val: "1"
        string_val: "1"
        string_val: "1"
        string_val: "1"
        string_val: "2"
        string_val: "1"
        string_val: "2"
        string_val: "1"
        string_val: "2"
        string_val: "2"
        string_val: "2"
        string_val: "2"
        string_val: "1"
        string_val: "1"
        string_val: "2"
        string_val: "1"
        string_val: "2"
        string_val: "1"
        string_val: "1"
        string_val: "1"
        string_val: "1"
        string_val: "2"
        string_val: "1"
        string_val: "2"
        string_val: "1"
        string_val: "1"
        string_val: "2"
        string_val: "2"
        string_val: "2"
        string_val: "1"
        string_val: "2"
        string_val: "1"
        string_val: "1"
        string_val: "2"
        string_val: "1"
        string_val: "1"
        string_val: "1"
        string_val: "2"
        string_val: "2"
        string_val: "1"
        string_val: "2"
        string_val: "2"
        string_val: "2"
        string_val: "2"
        string_val: "1"
        string_val: "2"
        string_val: "2"
        string_val: "2"
        string_val: "1"
        string_val: "2"
        string_val: "2"
        string_val: "2"
        string_val: "2"
        string_val: "1"
        string_val: "2"
        string_val: "1"
        string_val: "2"
        string_val: "2"
        string_val: "1"
        string_val: "1"
        string_val: "1"
        string_val: "1"
        string_val: "1"
        string_val: "2"
        string_val: "1"
        string_val: "1"
        string_val: "1"
        string_val: "2"
        string_val: "2"
        string_val: "2"
        string_val: "1"
        string_val: "1"
        string_val: "1"
        string_val: "1"
        string_val: "2"
        string_val: "2"
        string_val: "1"
        string_val: "1"
        string_val: "2"
        string_val: "1"
        string_val: "2"
        string_val: "1"
        string_val: "1"
        string_val: "2"
        string_val: "1"
        string_val: "1"
        string_val: "2"
        string_val: "2"
        string_val: "2"
        string_val: "2"
        string_val: "1"
        string_val: "2"
        string_val: "2"
        string_val: "2"
        string_val: "2"
        string_val: "2"
        string_val: "1"
        string_val: "2"
        string_val: "2"
        string_val: "2"
        string_val: "2"
        string_val: "2"
        string_val: "1"
        string_val: "1"
        string_val: "1"
        string_val: "1"
        string_val: "1"
        string_val: "2"
        string_val: "1"
        string_val: "1"
        string_val: "2"
        string_val: "2"
        string_val: "2"
        string_val: "2"
        string_val: "1"
        string_val: "1"
        string_val: "2"
        string_val: "1"
        string_val: "1"
        string_val: "2"
        string_val: "1"
        string_val: "1"
        string_val: "2"
        string_val: "2"
        string_val: "1"
        string_val: "2"
        string_val: "2"
        string_val: "1"
        string_val: "2"
        string_val: "1"
        string_val: "2"
        string_val: "1"
        string_val: "2"
        string_val: "2"
        string_val: "2"
        string_val: "1"
        string_val: "2"
        string_val: "2"
        string_val: "2"
        string_val: "1"
        string_val: "1"
        string_val: "1"
        string_val: "1"
        string_val: "2"
        string_val: "1"
        string_val: "2"
        string_val: "1"
        string_val: "1"
        string_val: "2"
        string_val: "2"
        string_val: "2"
        string_val: "1"
        string_val: "2"
        string_val: "2"
        string_val: "1"
        string_val: "2"
        string_val: "2"
        string_val: "2"
        string_val: "2"
        string_val: "1"
        string_val: "1"
        string_val: "1"
        string_val: "1"
        string_val: "1"
        string_val: "1"
        string_val: "2"
        string_val: "1"
        string_val: "2"
        string_val: "2"
        string_val: "1"
        string_val: "1"
        string_val: "1"
        string_val: "2"
        string_val: "2"
        string_val: "2"
        string_val: "1"
        string_val: "1"
        string_val: "2"
        string_val: "2"
        string_val: "2"
        string_val: "1"
        string_val: "2"
        string_val: "2"
        string_val: "1"
        string_val: "2"
        string_val: "1"
        string_val: "2"
        string_val: "1"
        string_val: "2"
        string_val: "1"
        string_val: "1"
        string_val: "2"
        string_val: "2"
        string_val: "2"
        string_val: "2"
        string_val: "1"
        string_val: "1"
        string_val: "2"
        string_val: "1"
        string_val: "1"
        string_val: "2"
        string_val: "1"
        string_val: "2"
        string_val: "2"
        string_val: "2"
        string_val: "1"
        string_val: "2"
        string_val: "1"
        string_val: "2"
        string_val: "2"
        string_val: "2"
        string_val: "1"
        string_val: "1"
        string_val: "2"
        string_val: "1"
        string_val: "1"
        string_val: "1"
        string_val: "1"
        string_val: "2"
        string_val: "2"
        string_val: "2"
        string_val: "2"
        string_val: "2"
        string_val: "1"
        string_val: "2"
        string_val: "1"
        string_val: "2"
        string_val: "2"
        string_val: "1"
        string_val: "2"
        string_val: "1"
        string_val: "2"
        string_val: "2"
        string_val: "2"
        string_val: "1"
        string_val: "1"
        string_val: "1"
        string_val: "2"
        string_val: "2"
        string_val: "2"
        string_val: "2"
        string_val: "2"
        string_val: "2"
        string_val: "1"
        string_val: "2"
        string_val: "1"
        string_val: "1"
        string_val: "1"
        string_val: "1"
        string_val: "1"
        string_val: "2"
        string_val: "1"
        string_val: "1"
        string_val: "1"
        string_val: "2"
        string_val: "1"
        string_val: "2"
        string_val: "2"
        string_val: "2"
        string_val: "2"
        string_val: "1"
        string_val: "2"
        string_val: "2"
        string_val: "2"
        string_val: "1"
        string_val: "2"
        string_val: "1"
        string_val: "2"
        string_val: "2"
        string_val: "2"
        string_val: "1"
        string_val: "2"
        string_val: "1"
        string_val: "2"
        string_val: "1"
        string_val: "1"
        string_val: "2"
        string_val: "1"
        string_val: "2"
        string_val: "1"
        string_val: "1"
        string_val: "1"
        string_val: "2"
        string_val: "1"
        string_val: "1"
        string_val: "1"
        string_val: "2"
        string_val: "2"
        string_val: "2"
        string_val: "1"
        string_val: "2"
        string_val: "2"
        string_val: "2"
        string_val: "1"
        string_val: "1"
        string_val: "2"
        string_val: "1"
        string_val: "2"
        string_val: "2"
        string_val: "2"
        string_val: "2"
        string_val: "1"
        string_val: "2"
        string_val: "1"
        string_val: "1"
        string_val: "2"
        string_val: "1"
        string_val: "1"
        string_val: "2"
        string_val: "2"
        string_val: "2"
        string_val: "2"
        string_val: "1"
        string_val: "1"
        string_val: "1"
        string_val: "1"
        string_val: "2"
        string_val: "2"
        string_val: "2"
        string_val: "1"
        string_val: "1"
        string_val: "2"
        string_val: "1"
        string_val: "1"
        string_val: "1"
        string_val: "2"
        string_val: "2"
        string_val: "2"
        string_val: "2"
        string_val: "1"
        string_val: "2"
        string_val: "2"
        string_val: "1"
        string_val: "1"
        string_val: "1"
        string_val: "2"
        string_val: "2"
        string_val: "1"
        string_val: "2"
        string_val: "1"
        string_val: "2"
        string_val: "2"
        string_val: "1"
        string_val: "1"
        string_val: "2"
        string_val: "2"
        string_val: "1"
        string_val: "1"
        string_val: "1"
        string_val: "1"
        string_val: "2"
        string_val: "2"
        string_val: "2"
        string_val: "1"
        string_val: "1"
        string_val: "2"
        string_val: "2"
        string_val: "2"
        string_val: "2"
        string_val: "1"
        string_val: "1"
        string_val: "1"
        string_val: "1"
        string_val: "1"
        string_val: "2"
        string_val: "1"
        string_val: "2"
        string_val: "1"
        string_val: "2"
        string_val: "2"
        string_val: "1"
        string_val: "2"
        string_val: "1"
        string_val: "1"
        string_val: "2"
        string_val: "1"
        string_val: "1"
        string_val: "2"
        string_val: "1"
        string_val: "2"
        string_val: "2"
        string_val: "1"
        string_val: "1"
        string_val: "2"
        string_val: "2"
        string_val: "1"
        string_val: "2"
        string_val: "1"
        string_val: "1"
        string_val: "2"
        string_val: "1"
        string_val: "2"
        string_val: "2"
        string_val: "1"
        string_val: "1"
        string_val: "2"
        string_val: "2"
        string_val: "2"
        string_val: "2"
        string_val: "1"
        string_val: "2"
        string_val: "2"
        string_val: "2"
        string_val: "1"
        string_val: "2"
        string_val: "1"
        string_val: "1"
        string_val: "2"
        string_val: "2"
        string_val: "2"
        string_val: "1"
        string_val: "1"
        string_val: "1"
        string_val: "1"
        string_val: "1"
        string_val: "2"
        string_val: "1"
        string_val: "2"
        string_val: "1"
        string_val: "1"
        string_val: "1"
        string_val: "2"
        string_val: "2"
        string_val: "2"
        string_val: "1"
        string_val: "1"
        string_val: "1"
        string_val: "1"
        string_val: "1"
        string_val: "2"
        string_val: "1"
        string_val: "2"
        string_val: "2"
        string_val: "2"
        string_val: "1"
        string_val: "2"
        string_val: "2"
        string_val: "2"
        string_val: "1"
        string_val: "1"
        string_val: "2"
        string_val: "2"
        string_val: "2"
        string_val: "1"
        string_val: "2"
        string_val: "2"
        string_val: "1"
        string_val: "2"
        string_val: "2"
        string_val: "1"
        string_val: "1"
        string_val: "2"
        string_val: "2"
        string_val: "1"
        string_val: "2"
        string_val: "1"
        string_val: "2"
        string_val: "1"
        string_val: "2"
        string_val: "1"
        string_val: "2"
        string_val: "2"
        string_val: "2"
        string_val: "1"
        string_val: "2"
        string_val: "1"
        string_val: "1"
        string_val: "2"
        string_val: "2"
        string_val: "2"
        string_val: "1"
        string_val: "1"
        string_val: "1"
        string_val: "1"
        string_val: "2"
        string_val: "1"
        string_val: "1"
        string_val: "1"
        string_val: "1"
        string_val: "2"
        string_val: "1"
        string_val: "1"
        string_val: "1"
        string_val: "2"
        string_val: "2"
        string_val: "2"
        string_val: "2"
        string_val: "1"
        string_val: "2"
        string_val: "2"
        string_val: "2"
        string_val: "2"
        string_val: "2"
        string_val: "2"
        string_val: "1"
        string_val: "1"
        string_val: "2"
        string_val: "2"
        string_val: "1"
        string_val: "1"
        string_val: "1"
        string_val: "1"
        string_val: "2"
        string_val: "2"
        string_val: "1"
        string_val: "1"
        string_val: "1"
        string_val: "1"
        string_val: "2"
        string_val: "1"
        string_val: "1"
        string_val: "2"
        string_val: "2"
        string_val: "1"
        string_val: "2"
        string_val: "1"
        string_val: "2"
        string_val: "2"
        string_val: "1"
        string_val: "1"
        string_val: "2"
        string_val: "2"
        string_val: "2"
        string_val: "1"
        string_val: "1"
        string_val: "2"
        string_val: "1"
        string_val: "1"
        string_val: "1"
        string_val: "2"
        string_val: "2"
        string_val: "1"
        string_val: "2"
        string_val: "1"
        string_val: "1"
        string_val: "2"
        string_val: "1"
        string_val: "2"
        string_val: "2"
        string_val: "1"
        string_val: "1"
        string_val: "2"
        string_val: "2"
        string_val: "2"
        string_val: "1"
        string_val: "2"
        string_val: "1"
        string_val: "1"
        string_val: "2"
        string_val: "2"
        string_val: "1"
        string_val: "1"
        string_val: "1"
        string_val: "2"
        string_val: "2"
        string_val: "1"
        string_val: "2"
        string_val: "1"
        string_val: "2"
        string_val: "2"
        string_val: "2"
        string_val: "1"
        string_val: "2"
        string_val: "1"
        string_val: "1"
        string_val: "1"
        string_val: "2"
        string_val: "1"
        string_val: "2"
        string_val: "1"
        string_val: "2"
        string_val: "1"
        string_val: "2"
        string_val: "1"
        string_val: "2"
        string_val: "2"
        string_val: "1"
        string_val: "1"
        string_val: "1"
        string_val: "2"
        string_val: "1"
        string_val: "2"
        string_val: "2"
        string_val: "2"
        string_val: "2"
        string_val: "2"
        string_val: "1"
        string_val: "2"
        string_val: "1"
        string_val: "1"
        string_val: "2"
        string_val: "2"
        string_val: "2"
        string_val: "2"
        string_val: "1"
        string_val: "2"
        string_val: "2"
        string_val: "1"
        string_val: "2"
        string_val: "2"
        string_val: "1"
        string_val: "1"
        string_val: "2"
        string_val: "1"
        string_val: "1"
        string_val: "2"
        string_val: "1"
        string_val: "1"
        string_val: "1"
        string_val: "1"
        string_val: "1"
        string_val: "2"
        string_val: "1"
        string_val: "1"
        string_val: "2"
        string_val: "1"
        string_val: "1"
        string_val: "1"
        string_val: "2"
        string_val: "1"
        string_val: "2"
        string_val: "1"
        string_val: "1"
        string_val: "2"
        string_val: "1"
        string_val: "2"
        string_val: "1"
        string_val: "2"
        string_val: "2"
        string_val: "2"
        string_val: "2"
        string_val: "1"
        string_val: "1"
        string_val: "2"
        string_val: "2"
        string_val: "2"
        string_val: "2"
        string_val: "2"
        string_val: "1"
        string_val: "2"
        string_val: "1"
        string_val: "1"
        string_val: "1"
        string_val: "2"
        string_val: "2"
        string_val: "2"
        string_val: "1"
        string_val: "2"
        string_val: "1"
        string_val: "1"
        string_val: "1"
        string_val: "2"
        string_val: "1"
        string_val: "1"
        string_val: "2"
        string_val: "1"
        string_val: "2"
        string_val: "2"
        string_val: "2"
        string_val: "2"
        string_val: "2"
        string_val: "2"
        string_val: "2"
        string_val: "1"
        string_val: "2"
        string_val: "2"
        string_val: "2"
        string_val: "1"
        string_val: "2"
        string_val: "2"
        string_val: "1"
        string_val: "2"
        string_val: "2"
        string_val: "2"
        string_val: "1"
        string_val: "2"
        string_val: "2"
        string_val: "1"
        string_val: "2"
        string_val: "2"
        string_val: "1"
        string_val: "2"
        string_val: "2"
        string_val: "2"
        string_val: "1"
        string_val: "1"
        string_val: "1"
        string_val: "1"
        string_val: "2"
        string_val: "1"
        string_val: "1"
        string_val: "2"
        string_val: "1"
        string_val: "2"
        string_val: "1"
        string_val: "1"
        string_val: "2"
        string_val: "2"
        string_val: "1"
        string_val: "1"
        string_val: "2"
        string_val: "1"
        string_val: "1"
        string_val: "2"
        string_val: "2"
        string_val: "2"
        string_val: "2"
        string_val: "2"
        string_val: "2"
        string_val: "1"
        string_val: "2"
        string_val: "2"
        string_val: "1"
        string_val: "2"
        string_val: "1"
        string_val: "2"
        string_val: "2"
        string_val: "2"
        string_val: "2"
        string_val: "1"
        string_val: "2"
        string_val: "1"
        string_val: "2"
        string_val: "2"
        string_val: "1"
        string_val: "2"
        string_val: "2"
        string_val: "1"
        string_val: "2"
        string_val: "1"
        string_val: "2"
        string_val: "1"
        string_val: "1"
        string_val: "1"
        string_val: "1"
        string_val: "2"
        string_val: "2"
        string_val: "1"
        string_val: "1"
        string_val: "2"
        string_val: "1"
        string_val: "2"
        string_val: "2"
        string_val: "2"
        string_val: "1"
        string_val: "2"
        string_val: "1"
        string_val: "2"
        string_val: "1"
        string_val: "2"
        string_val: "2"
        string_val: "2"
        string_val: "1"
        string_val: "2"
        string_val: "1"
        string_val: "2"
        string_val: "1"
        string_val: "1"
        string_val: "1"
        string_val: "2"
        string_val: "1"
        string_val: "1"
        string_val: "2"
        string_val: "1"
        string_val: "2"
        string_val: "2"
        string_val: "2"
        string_val: "2"
        string_val: "2"
        string_val: "1"
        string_val: "2"
        string_val: "1"
        string_val: "1"
        string_val: "1"
        string_val: "1"
        string_val: "2"
        string_val: "2"
        string_val: "1"
        string_val: "1"
        string_val: "1"
        string_val: "2"
        string_val: "1"
        string_val: "2"
        string_val: "1"
        string_val: "1"
        string_val: "2"
        string_val: "1"
        string_val: "1"
        string_val: "2"
        string_val: "1"
        string_val: "1"
        string_val: "1"
        string_val: "1"
        string_val: "2"
        string_val: "1"
        string_val: "1"
        string_val: "2"
        string_val: "1"
        string_val: "1"
        string_val: "1"
        string_val: "2"
        string_val: "1"
        string_val: "1"
        string_val: "1"
        string_val: "2"
        string_val: "1"
        string_val: "1"
        string_val: "1"
        string_val: "1"
        string_val: "2"
        string_val: "1"
        string_val: "1"
        string_val: "1"
        string_val: "1"
        string_val: "1"
        string_val: "2"
        string_val: "2"
        string_val: "2"
        string_val: "2"
        string_val: "2"
        string_val: "2"
        string_val: "1"
        string_val: "2"
        string_val: "2"
        string_val: "1"
        string_val: "2"
        string_val: "1"
        string_val: "2"
        string_val: "2"
        string_val: "1"
        string_val: "2"
        string_val: "2"
        string_val: "1"
        string_val: "2"
        string_val: "1"
        string_val: "1"
        string_val: "2"
        string_val: "1"
        string_val: "1"
        string_val: "1"
        string_val: "1"
        string_val: "2"
        string_val: "2"
        string_val: "2"
        string_val: "2"
        string_val: "2"
        string_val: "1"
        string_val: "2"
        string_val: "2"
        string_val: "1"
        string_val: "1"
        string_val: "1"
        string_val: "1"
        string_val: "2"
        string_val: "2"
        string_val: "1"
        string_val: "2"
        string_val: "1"
        string_val: "2"
        string_val: "1"
        string_val: "1"
        string_val: "2"
        string_val: "2"
        string_val: "2"
        string_val: "1"
        string_val: "2"
        string_val: "1"
        string_val: "1"
        string_val: "1"
        string_val: "2"
        string_val: "2"
        string_val: "2"
        string_val: "2"
        string_val: "2"
        string_val: "2"
        string_val: "1"
        string_val: "1"
        string_val: "2"
        string_val: "1"
        string_val: "2"
        string_val: "2"
        string_val: "2"
        string_val: "2"
        string_val: "1"
        string_val: "1"
        string_val: "1"
        string_val: "2"
        string_val: "1"
        string_val: "1"
        string_val: "2"
        string_val: "1"
        string_val: "1"
        string_val: "1"
        string_val: "2"
        string_val: "2"
        string_val: "1"
        string_val: "1"
        string_val: "1"
        string_val: "1"
        string_val: "1"
        string_val: "1"
        string_val: "1"
        string_val: "1"
        string_val: "1"
        string_val: "2"
        string_val: "1"
        string_val: "1"
        string_val: "1"
        string_val: "1"
        string_val: "1"
        string_val: "1"
        string_val: "2"
        string_val: "2"
        string_val: "2"
        string_val: "1"
        string_val: "1"
        string_val: "1"
        string_val: "1"
        string_val: "2"
        string_val: "2"
        string_val: "1"
        string_val: "1"
        string_val: "1"
        string_val: "2"
        string_val: "2"
        string_val: "2"
        string_val: "2"
        string_val: "1"
        string_val: "2"
        string_val: "1"
        string_val: "1"
        string_val: "1"
        string_val: "2"
        string_val: "1"
        string_val: "2"
        string_val: "2"
        string_val: "1"
        string_val: "2"
        string_val: "1"
        string_val: "1"
        string_val: "1"
        string_val: "2"
        string_val: "2"
        string_val: "2"
        string_val: "2"
        string_val: "2"
        string_val: "1"
        string_val: "2"
        string_val: "2"
        string_val: "1"
        string_val: "2"
        string_val: "2"
        string_val: "1"
        string_val: "1"
        string_val: "1"
        string_val: "2"
        string_val: "1"
        string_val: "1"
        string_val: "2"
        string_val: "1"
        string_val: "1"
        string_val: "1"
        string_val: "2"
        string_val: "1"
        string_val: "1"
        string_val: "1"
        string_val: "1"
        string_val: "2"
        string_val: "1"
        string_val: "1"
        string_val: "1"
        string_val: "2"
        string_val: "1"
        string_val: "1"
        string_val: "2"
        string_val: "2"
        string_val: "1"
        string_val: "1"
        string_val: "2"
        string_val: "1"
        string_val: "1"
        string_val: "2"
        string_val: "2"
        string_val: "2"
        string_val: "2"
        string_val: "1"
        string_val: "2"
        string_val: "1"
        string_val: "2"
        string_val: "2"
        string_val: "1"
        string_val: "2"
        string_val: "1"
        string_val: "2"
        string_val: "1"
        string_val: "1"
        string_val: "2"
        string_val: "1"
        string_val: "1"
        string_val: "1"
        string_val: "2"
        string_val: "1"
        string_val: "1"
        string_val: "2"
        string_val: "1"
        string_val: "1"
        string_val: "1"
        string_val: "2"
        string_val: "2"
        string_val: "2"
        string_val: "1"
        string_val: "1"
        string_val: "1"
        string_val: "1"
        string_val: "1"
        string_val: "1"
        string_val: "1"
        string_val: "2"
        string_val: "1"
        string_val: "2"
        string_val: "2"
        string_val: "1"
        string_val: "1"
        string_val: "1"
        string_val: "1"
        string_val: "2"
        string_val: "2"
        string_val: "1"
        string_val: "1"
        string_val: "2"
        string_val: "1"
        string_val: "2"
        string_val: "1"
        string_val: "2"
        string_val: "2"
        string_val: "2"
        string_val: "2"
        string_val: "2"
        string_val: "2"
        string_val: "2"
        string_val: "2"
        string_val: "1"
        string_val: "1"
        string_val: "2"
        string_val: "1"
        string_val: "2"
        string_val: "1"
        string_val: "2"
        string_val: "2"
        string_val: "2"
        string_val: "2"
        string_val: "2"
        string_val: "2"
        string_val: "2"
        string_val: "1"
        string_val: "2"
        string_val: "1"
        string_val: "2"
        string_val: "1"
        string_val: "1"
        string_val: "1"
        string_val: "2"
        string_val: "1"
        string_val: "2"
        string_val: "2"
        string_val: "1"
        string_val: "1"
        string_val: "2"
        string_val: "1"
        string_val: "2"
        string_val: "2"
        string_val: "1"
        string_val: "2"
        string_val: "1"
        string_val: "2"
        string_val: "1"
        string_val: "2"
        string_val: "2"
        string_val: "2"
        string_val: "2"
        string_val: "2"
        string_val: "2"
        string_val: "1"
        string_val: "1"
        string_val: "1"
        string_val: "2"
        string_val: "1"
        string_val: "1"
        string_val: "1"
        string_val: "2"
        string_val: "2"
        string_val: "1"
        string_val: "1"
        string_val: "1"
        string_val: "1"
        string_val: "1"
        string_val: "1"
        string_val: "1"
        string_val: "2"
        string_val: "2"
        string_val: "1"
        string_val: "2"
        string_val: "1"
        string_val: "1"
        string_val: "2"
        string_val: "2"
        string_val: "1"
        string_val: "2"
        string_val: "1"
        string_val: "1"
        string_val: "1"
        string_val: "1"
        string_val: "2"
        string_val: "1"
        string_val: "1"
        string_val: "1"
        string_val: "1"
        string_val: "1"
        string_val: "2"
        string_val: "2"
        string_val: "1"
        string_val: "2"
        string_val: "2"
        string_val: "2"
        string_val: "2"
        string_val: "1"
        string_val: "1"
        string_val: "2"
        string_val: "1"
        string_val: "1"
        string_val: "2"
        string_val: "2"
        string_val: "2"
        string_val: "1"
        string_val: "1"
        string_val: "2"
        string_val: "2"
        string_val: "1"
        string_val: "1"
        string_val: "1"
        string_val: "1"
        string_val: "2"
        string_val: "2"
        string_val: "1"
        string_val: "2"
        string_val: "1"
        string_val: "1"
        string_val: "2"
        string_val: "1"
        string_val: "1"
        string_val: "1"
        string_val: "1"
        string_val: "2"
        string_val: "2"
        string_val: "2"
        string_val: "2"
        string_val: "2"
        string_val: "2"
        string_val: "1"
        string_val: "1"
        string_val: "1"
        string_val: "1"
        string_val: "1"
        string_val: "1"
        string_val: "2"
        string_val: "1"
        string_val: "1"
        string_val: "1"
        string_val: "1"
        string_val: "2"
        string_val: "2"
        string_val: "1"
        string_val: "2"
        string_val: "2"
        string_val: "1"
        string_val: "2"
        string_val: "1"
        string_val: "1"
        string_val: "2"
        string_val: "1"
        string_val: "1"
        string_val: "1"
        string_val: "1"
        string_val: "2"
        string_val: "1"
        string_val: "1"
        string_val: "1"
        string_val: "2"
        string_val: "2"
        string_val: "1"
        string_val: "2"
        string_val: "2"
        string_val: "1"
        string_val: "1"
        string_val: "1"
        string_val: "1"
        string_val: "1"
        string_val: "1"
        string_val: "2"
        string_val: "2"
        string_val: "2"
        string_val: "2"
        string_val: "2"
        string_val: "2"
        string_val: "2"
        string_val: "2"
        string_val: "1"
        string_val: "2"
        string_val: "2"
        string_val: "1"
        string_val: "1"
        string_val: "1"
        string_val: "1"
        string_val: "1"
        string_val: "1"
        string_val: "2"
        string_val: "1"
        string_val: "2"
        string_val: "1"
        string_val: "1"
        string_val: "2"
        string_val: "1"
        string_val: "1"
        string_val: "1"
        string_val: "2"
        string_val: "1"
        string_val: "1"
        string_val: "1"
        string_val: "1"
        string_val: "2"
        string_val: "2"
        string_val: "1"
        string_val: "2"
        string_val: "1"
        string_val: "2"
        string_val: "2"
        string_val: "1"
        string_val: "1"
        string_val: "2"
        string_val: "1"
        string_val: "2"
        string_val: "2"
        string_val: "1"
        string_val: "1"
        string_val: "2"
        string_val: "1"
        string_val: "1"
        string_val: "2"
        string_val: "1"
        string_val: "2"
        string_val: "1"
        string_val: "1"
        string_val: "1"
        string_val: "1"
        string_val: "1"
        string_val: "1"
        string_val: "2"
        string_val: "1"
        string_val: "2"
        string_val: "2"
        string_val: "2"
        string_val: "1"
        string_val: "1"
        string_val: "1"
        string_val: "1"
        string_val: "1"
        string_val: "1"
        string_val: "2"
        string_val: "2"
        string_val: "1"
        string_val: "2"
        string_val: "1"
        string_val: "2"
        string_val: "2"
        string_val: "2"
        string_val: "2"
        string_val: "2"
        string_val: "2"
        string_val: "2"
        string_val: "2"
        string_val: "1"
        string_val: "1"
        string_val: "2"
        string_val: "2"
        string_val: "2"
        string_val: "1"
        string_val: "2"
        string_val: "1"
        string_val: "1"
        string_val: "1"
        string_val: "1"
        string_val: "1"
        string_val: "1"
        string_val: "2"
        string_val: "2"
        string_val: "2"
        string_val: "2"
        string_val: "2"
        string_val: "1"
        string_val: "2"
        string_val: "1"
        string_val: "1"
        string_val: "2"
        string_val: "1"
        string_val: "2"
        string_val: "1"
        string_val: "2"
        string_val: "2"
        string_val: "1"
        string_val: "1"
        string_val: "2"
        string_val: "1"
        string_val: "2"
      }
    }
  }
}
node {
  name: "tensors/component_5"
  op: "Const"
  device: "/device:CPU:0"
  attr {
    key: "_output_shapes"
    value {
      list {
        shape {
          dim {
            size: 2262
          }
        }
      }
    }
  }
  attr {
    key: "dtype"
    value {
      type: DT_DOUBLE
    }
  }
  attr {
    key: "value"
    value {
      tensor {
        dtype: DT_DOUBLE
        tensor_shape {
          dim {
            size: 2262
          }
        }
        tensor_content: "…"
      }
    }
  }
}
node {
  name: "tensors/component_6"
  op: "Const"
  device: "/device:CPU:0"
  attr {
    key: "_output_shapes"
    value {
      list {
        shape {
          dim {
            size: 2262
          }
        }
      }
    }
  }
  attr {
    key: "dtype"
    value {
      type: DT_DOUBLE
    }
  }
  attr {
    key: "value"
    value {
      tensor {
        dtype: DT_DOUBLE
        tensor_shape {
          dim {
            size: 2262
          }
        }
        tensor_content: "…"
      }
    }
  }
}
node {
  name: "tensors/component_7"
  op: "Const"
  device: "/device:CPU:0"
  attr {
    key: "_output_shapes"
    value {
      list {
        shape {
          dim {
            size: 2262
          }
        }
      }
    }
  }
  attr {
    key: "dtype"
    value {
      type: DT_DOUBLE
    }
  }
  attr {
    key: "value"
    value {
      tensor {
        dtype: DT_DOUBLE
        tensor_shape {
          dim {
            size: 2262
          }
        }
        tensor_content: "…"
      }
    }
  }
}
node {
  name: "tensors/component_8"
  op: "Const"
  device: "/device:CPU:0"
  attr {
    key: "_output_shapes"
    value {
      list {
        shape {
          dim {
            size: 2262
          }
        }
      }
    }
  }
  attr {
    key: "dtype"
    value {
      type: DT_INT64
    }
  }
  attr {
    key: "value"
    value {
      tensor {
        dtype: DT_INT64
        tensor_shape {
          dim {
            size: 2262
          }
        }
        tensor_content: "…"
      }
    }
  }
}
node {
  name: "tensors/component_9"
  op: "Const"
  device: "/device:CPU:0"
  attr {
    key: "_output_shapes"
    value {
      list {
        shape {
          dim {
            size: 2262
          }
        }
      }
    }
  }
  attr {
    key: "dtype"
    value {
      type: DT_INT64
    }
  }
  attr {
    key: "value"
    value {
      tensor {
        dtype: DT_INT64
        tensor_shape {
          dim {
            size: 2262
          }
        }
        tensor_content: "…"
      }
    }
  }
}
node {
  name: "buffer_size"
  op: "Const"
  device: "/device:CPU:0"
  attr {
    key: "_output_shapes"
    value {
      list {
        shape {
        }
      }
    }
  }
  attr {
    key: "dtype"
    value {
      type: DT_INT64
    }
  }
  attr {
    key: "value"
    value {
      tensor {
        dtype: DT_INT64
        tensor_shape {
        }
        int64_val: 2262
      }
    }
  }
}
node {
  name: "seed"
  op: "Const"
  device: "/device:CPU:0"
  attr {
    key: "_output_shapes"
    value {
      list {
        shape {
        }
      }
    }
  }
  attr {
    key: "dtype"
    value {
      type: DT_INT64
    }
  }
  attr {
    key: "value"
    value {
      tensor {
        dtype: DT_INT64
        tensor_shape {
        }
        int64_val: 0
      }
    }
  }
}
node {
  name: "seed2"
  op: "Const"
  device: "/device:CPU:0"
  attr {
    key: "_output_shapes"
    value {
      list {
        shape {
        }
      }
    }
  }
  attr {
    key: "dtype"
    value {
      type: DT_INT64
    }
  }
  attr {
    key: "value"
    value {
      tensor {
        dtype: DT_INT64
        tensor_shape {
        }
        int64_val: 0
      }
    }
  }
}
node {
  name: "count"
  op: "Const"
  device: "/device:CPU:0"
  attr {
    key: "_output_shapes"
    value {
      list {
        shape {
        }
      }
    }
  }
  attr {
    key: "dtype"
    value {
      type: DT_INT64
    }
  }
  attr {
    key: "value"
    value {
      tensor {
        dtype: DT_INT64
        tensor_shape {
        }
        int64_val: 500
      }
    }
  }
}
node {
  name: "batch_size"
  op: "Const"
  device: "/device:CPU:0"
  attr {
    key: "_output_shapes"
    value {
      list {
        shape {
        }
      }
    }
  }
  attr {
    key: "dtype"
    value {
      type: DT_INT64
    }
  }
  attr {
    key: "value"
    value {
      tensor {
        dtype: DT_INT64
        tensor_shape {
        }
        int64_val: 32
      }
    }
  }
}
node {
  name: "drop_remainder"
  op: "Const"
  device: "/device:CPU:0"
  attr {
    key: "_output_shapes"
    value {
      list {
        shape {
        }
      }
    }
  }
  attr {
    key: "dtype"
    value {
      type: DT_BOOL
    }
  }
  attr {
    key: "value"
    value {
      tensor {
        dtype: DT_BOOL
        tensor_shape {
        }
        bool_val: false
      }
    }
  }
}
node {
  name: "optimizations"
  op: "Const"
  attr {
    key: "_output_shapes"
    value {
      list {
        shape {
          dim {
            size: 3
          }
        }
      }
    }
  }
  attr {
    key: "dtype"
    value {
      type: DT_STRING
    }
  }
  attr {
    key: "value"
    value {
      tensor {
        dtype: DT_STRING
        tensor_shape {
          dim {
            size: 3
          }
        }
        string_val: "map_and_batch_fusion"
        string_val: "noop_elimination"
        string_val: "shuffle_and_repeat_fusion"
      }
    }
  }
}
node {
  name: "IteratorV2"
  op: "IteratorV2"
  attr {
    key: "_output_shapes"
    value {
      list {
        shape {
        }
      }
    }
  }
  attr {
    key: "container"
    value {
      s: ""
    }
  }
  attr {
    key: "output_shapes"
    value {
      list {
        shape {
          dim {
            size: -1
          }
        }
        shape {
          dim {
            size: -1
          }
        }
        shape {
          dim {
            size: -1
          }
        }
        shape {
          dim {
            size: -1
          }
        }
        shape {
          dim {
            size: -1
          }
        }
        shape {
          dim {
            size: -1
          }
        }
        shape {
          dim {
            size: -1
          }
        }
        shape {
          dim {
            size: -1
          }
        }
        shape {
          dim {
            size: -1
          }
        }
        shape {
          dim {
            size: -1
          }
        }
      }
    }
  }
  attr {
    key: "output_types"
    value {
      list {
        type: DT_DOUBLE
        type: DT_DOUBLE
        type: DT_DOUBLE
        type: DT_DOUBLE
        type: DT_STRING
        type: DT_DOUBLE
        type: DT_DOUBLE
        type: DT_DOUBLE
        type: DT_INT64
        type: DT_INT64
      }
    }
  }
  attr {
    key: "shared_name"
    value {
      s: ""
    }
  }
}
node {
  name: "TensorSliceDataset"
  op: "TensorSliceDataset"
  input: "tensors/component_0"
  input: "tensors/component_1"
  input: "tensors/component_2"
  input: "tensors/component_3"
  input: "tensors/component_4"
  input: "tensors/component_5"
  input: "tensors/component_6"
  input: "tensors/component_7"
  input: "tensors/component_8"
  input: "tensors/component_9"
  attr {
    key: "Toutput_types"
    value {
      list {
        type: DT_DOUBLE
        type: DT_DOUBLE
        type: DT_DOUBLE
        type: DT_DOUBLE
        type: DT_STRING
        type: DT_DOUBLE
        type: DT_DOUBLE
        type: DT_DOUBLE
        type: DT_INT64
        type: DT_INT64
      }
    }
  }
  attr {
    key: "_class"
    value {
      list {
        s: "loc:@IteratorV2"
      }
    }
  }
  attr {
    key: "_output_shapes"
    value {
      list {
        shape {
        }
      }
    }
  }
  attr {
    key: "output_shapes"
    value {
      list {
        shape {
        }
        shape {
        }
        shape {
        }
        shape {
        }
        shape {
        }
        shape {
        }
        shape {
        }
        shape {
        }
        shape {
        }
        shape {
        }
      }
    }
  }
}
node {
  name: "ShuffleDataset"
  op: "ShuffleDataset"
  input: "TensorSliceDataset"
  input: "buffer_size"
  input: "seed"
  input: "seed2"
  attr {
    key: "_class"
    value {
      list {
        s: "loc:@IteratorV2"
      }
    }
  }
  attr {
    key: "_output_shapes"
    value {
      list {
        shape {
        }
      }
    }
  }
  attr {
    key: "output_shapes"
    value {
      list {
        shape {
        }
        shape {
        }
        shape {
        }
        shape {
        }
        shape {
        }
        shape {
        }
        shape {
        }
        shape {
        }
        shape {
        }
        shape {
        }
      }
    }
  }
  attr {
    key: "output_types"
    value {
      list {
        type: DT_DOUBLE
        type: DT_DOUBLE
        type: DT_DOUBLE
        type: DT_DOUBLE
        type: DT_STRING
        type: DT_DOUBLE
        type: DT_DOUBLE
        type: DT_DOUBLE
        type: DT_INT64
        type: DT_INT64
      }
    }
  }
  attr {
    key: "reshuffle_each_iteration"
    value {
      b: true
    }
  }
}
node {
  name: "RepeatDataset"
  op: "RepeatDataset"
  input: "ShuffleDataset"
  input: "count"
  attr {
    key: "_class"
    value {
      list {
        s: "loc:@IteratorV2"
      }
    }
  }
  attr {
    key: "_output_shapes"
    value {
      list {
        shape {
        }
      }
    }
  }
  attr {
    key: "output_shapes"
    value {
      list {
        shape {
        }
        shape {
        }
        shape {
        }
        shape {
        }
        shape {
        }
        shape {
        }
        shape {
        }
        shape {
        }
        shape {
        }
        shape {
        }
      }
    }
  }
  attr {
    key: "output_types"
    value {
      list {
        type: DT_DOUBLE
        type: DT_DOUBLE
        type: DT_DOUBLE
        type: DT_DOUBLE
        type: DT_STRING
        type: DT_DOUBLE
        type: DT_DOUBLE
        type: DT_DOUBLE
        type: DT_INT64
        type: DT_INT64
      }
    }
  }
}
node {
  name: "BatchDatasetV2"
  op: "BatchDatasetV2"
  input: "RepeatDataset"
  input: "batch_size"
  input: "drop_remainder"
  attr {
    key: "_class"
    value {
      list {
        s: "loc:@IteratorV2"
      }
    }
  }
  attr {
    key: "_output_shapes"
    value {
      list {
        shape {
        }
      }
    }
  }
  attr {
    key: "output_shapes"
    value {
      list {
        shape {
          dim {
            size: -1
          }
        }
        shape {
          dim {
            size: -1
          }
        }
        shape {
          dim {
            size: -1
          }
        }
        shape {
          dim {
            size: -1
          }
        }
        shape {
          dim {
            size: -1
          }
        }
        shape {
          dim {
            size: -1
          }
        }
        shape {
          dim {
            size: -1
          }
        }
        shape {
          dim {
            size: -1
          }
        }
        shape {
          dim {
            size: -1
          }
        }
        shape {
          dim {
            size: -1
          }
        }
      }
    }
  }
  attr {
    key: "output_types"
    value {
      list {
        type: DT_DOUBLE
        type: DT_DOUBLE
        type: DT_DOUBLE
        type: DT_DOUBLE
        type: DT_STRING
        type: DT_DOUBLE
        type: DT_DOUBLE
        type: DT_DOUBLE
        type: DT_INT64
        type: DT_INT64
      }
    }
  }
}
node {
  name: "OptimizeDataset"
  op: "OptimizeDataset"
  input: "BatchDatasetV2"
  input: "optimizations"
  attr {
    key: "_class"
    value {
      list {
        s: "loc:@IteratorV2"
      }
    }
  }
  attr {
    key: "_output_shapes"
    value {
      list {
        shape {
        }
      }
    }
  }
  attr {
    key: "output_shapes"
    value {
      list {
        shape {
          dim {
            size: -1
          }
        }
        shape {
          dim {
            size: -1
          }
        }
        shape {
          dim {
            size: -1
          }
        }
        shape {
          dim {
            size: -1
          }
        }
        shape {
          dim {
            size: -1
          }
        }
        shape {
          dim {
            size: -1
          }
        }
        shape {
          dim {
            size: -1
          }
        }
        shape {
          dim {
            size: -1
          }
        }
        shape {
          dim {
            size: -1
          }
        }
        shape {
          dim {
            size: -1
          }
        }
      }
    }
  }
  attr {
    key: "output_types"
    value {
      list {
        type: DT_DOUBLE
        type: DT_DOUBLE
        type: DT_DOUBLE
        type: DT_DOUBLE
        type: DT_STRING
        type: DT_DOUBLE
        type: DT_DOUBLE
        type: DT_DOUBLE
        type: DT_INT64
        type: DT_INT64
      }
    }
  }
}
node {
  name: "ModelDataset"
  op: "ModelDataset"
  input: "OptimizeDataset"
  attr {
    key: "_class"
    value {
      list {
        s: "loc:@IteratorV2"
      }
    }
  }
  attr {
    key: "_output_shapes"
    value {
      list {
        shape {
        }
      }
    }
  }
  attr {
    key: "output_shapes"
    value {
      list {
        shape {
          dim {
            size: -1
          }
        }
        shape {
          dim {
            size: -1
          }
        }
        shape {
          dim {
            size: -1
          }
        }
        shape {
          dim {
            size: -1
          }
        }
        shape {
          dim {
            size: -1
          }
        }
        shape {
          dim {
            size: -1
          }
        }
        shape {
          dim {
            size: -1
          }
        }
        shape {
          dim {
            size: -1
          }
        }
        shape {
          dim {
            size: -1
          }
        }
        shape {
          dim {
            size: -1
          }
        }
      }
    }
  }
  attr {
    key: "output_types"
    value {
      list {
        type: DT_DOUBLE
        type: DT_DOUBLE
        type: DT_DOUBLE
        type: DT_DOUBLE
        type: DT_STRING
        type: DT_DOUBLE
        type: DT_DOUBLE
        type: DT_DOUBLE
        type: DT_INT64
        type: DT_INT64
      }
    }
  }
}
node {
  name: "MakeIterator"
  op: "MakeIterator"
  input: "ModelDataset"
  input: "IteratorV2"
  attr {
    key: "_class"
    value {
      list {
        s: "loc:@IteratorV2"
      }
    }
  }
}
node {
  name: "IteratorToStringHandle"
  op: "IteratorToStringHandle"
  input: "IteratorV2"
  attr {
    key: "_output_shapes"
    value {
      list {
        shape {
        }
      }
    }
  }
}
node {
  name: "IteratorGetNext"
  op: "IteratorGetNext"
  input: "IteratorV2"
  attr {
    key: "_output_shapes"
    value {
      list {
        shape {
          dim {
            size: -1
          }
        }
        shape {
          dim {
            size: -1
          }
        }
        shape {
          dim {
            size: -1
          }
        }
        shape {
          dim {
            size: -1
          }
        }
        shape {
          dim {
            size: -1
          }
        }
        shape {
          dim {
            size: -1
          }
        }
        shape {
          dim {
            size: -1
          }
        }
        shape {
          dim {
            size: -1
          }
        }
        shape {
          dim {
            size: -1
          }
        }
        shape {
          dim {
            size: -1
          }
        }
      }
    }
  }
  attr {
    key: "output_shapes"
    value {
      list {
        shape {
          dim {
            size: -1
          }
        }
        shape {
          dim {
            size: -1
          }
        }
        shape {
          dim {
            size: -1
          }
        }
        shape {
          dim {
            size: -1
          }
        }
        shape {
          dim {
            size: -1
          }
        }
        shape {
          dim {
            size: -1
          }
        }
        shape {
          dim {
            size: -1
          }
        }
        shape {
          dim {
            size: -1
          }
        }
        shape {
          dim {
            size: -1
          }
        }
        shape {
          dim {
            size: -1
          }
        }
      }
    }
  }
  attr {
    key: "output_types"
    value {
      list {
        type: DT_DOUBLE
        type: DT_DOUBLE
        type: DT_DOUBLE
        type: DT_DOUBLE
        type: DT_STRING
        type: DT_DOUBLE
        type: DT_DOUBLE
        type: DT_DOUBLE
        type: DT_INT64
        type: DT_INT64
      }
    }
  }
}
node {
  name: "dnn/input_from_feature_columns/input_layer/DeltaPHI/ExpandDims/dim"
  op: "Const"
  attr {
    key: "_output_shapes"
    value {
      list {
        shape {
        }
      }
    }
  }
  attr {
    key: "dtype"
    value {
      type: DT_INT32
    }
  }
  attr {
    key: "value"
    value {
      tensor {
        dtype: DT_INT32
        tensor_shape {
        }
        int_val: -1
      }
    }
  }
}
node {
  name: "dnn/input_from_feature_columns/input_layer/DeltaPHI/ExpandDims"
  op: "ExpandDims"
  input: "IteratorGetNext"
  input: "dnn/input_from_feature_columns/input_layer/DeltaPHI/ExpandDims/dim"
  attr {
    key: "T"
    value {
      type: DT_DOUBLE
    }
  }
  attr {
    key: "Tdim"
    value {
      type: DT_INT32
    }
  }
  attr {
    key: "_output_shapes"
    value {
      list {
        shape {
          dim {
            size: -1
          }
          dim {
            size: 1
          }
        }
      }
    }
  }
}
node {
  name: "dnn/input_from_feature_columns/input_layer/DeltaPHI/ToFloat"
  op: "Cast"
  input: "dnn/input_from_feature_columns/input_layer/DeltaPHI/ExpandDims"
  attr {
    key: "DstT"
    value {
      type: DT_FLOAT
    }
  }
  attr {
    key: "SrcT"
    value {
      type: DT_DOUBLE
    }
  }
  attr {
    key: "Truncate"
    value {
      b: false
    }
  }
  attr {
    key: "_output_shapes"
    value {
      list {
        shape {
          dim {
            size: -1
          }
          dim {
            size: 1
          }
        }
      }
    }
  }
}
node {
  name: "dnn/input_from_feature_columns/input_layer/DeltaPHI/Shape"
  op: "Shape"
  input: "dnn/input_from_feature_columns/input_layer/DeltaPHI/ToFloat"
  attr {
    key: "T"
    value {
      type: DT_FLOAT
    }
  }
  attr {
    key: "_output_shapes"
    value {
      list {
        shape {
          dim {
            size: 2
          }
        }
      }
    }
  }
  attr {
    key: "out_type"
    value {
      type: DT_INT32
    }
  }
}
node {
  name: "dnn/input_from_feature_columns/input_layer/DeltaPHI/strided_slice/stack"
  op: "Const"
  attr {
    key: "_output_shapes"
    value {
      list {
        shape {
          dim {
            size: 1
          }
        }
      }
    }
  }
  attr {
    key: "dtype"
    value {
      type: DT_INT32
    }
  }
  attr {
    key: "value"
    value {
      tensor {
        dtype: DT_INT32
        tensor_shape {
          dim {
            size: 1
          }
        }
        int_val: 0
      }
    }
  }
}
node {
  name: "dnn/input_from_feature_columns/input_layer/DeltaPHI/strided_slice/stack_1"
  op: "Const"
  attr {
    key: "_output_shapes"
    value {
      list {
        shape {
          dim {
            size: 1
          }
        }
      }
    }
  }
  attr {
    key: "dtype"
    value {
      type: DT_INT32
    }
  }
  attr {
    key: "value"
    value {
      tensor {
        dtype: DT_INT32
        tensor_shape {
          dim {
            size: 1
          }
        }
        int_val: 1
      }
    }
  }
}
node {
  name: "dnn/input_from_feature_columns/input_layer/DeltaPHI/strided_slice/stack_2"
  op: "Const"
  attr {
    key: "_output_shapes"
    value {
      list {
        shape {
          dim {
            size: 1
          }
        }
      }
    }
  }
  attr {
    key: "dtype"
    value {
      type: DT_INT32
    }
  }
  attr {
    key: "value"
    value {
      tensor {
        dtype: DT_INT32
        tensor_shape {
          dim {
            size: 1
          }
        }
        int_val: 1
      }
    }
  }
}
node {
  name: "dnn/input_from_feature_columns/input_layer/DeltaPHI/strided_slice"
  op: "StridedSlice"
  input: "dnn/input_from_feature_columns/input_layer/DeltaPHI/Shape"
  input: "dnn/input_from_feature_columns/input_layer/DeltaPHI/strided_slice/stack"
  input: "dnn/input_from_feature_columns/input_layer/DeltaPHI/strided_slice/stack_1"
  input: "dnn/input_from_feature_columns/input_layer/DeltaPHI/strided_slice/stack_2"
  attr {
    key: "Index"
    value {
      type: DT_INT32
    }
  }
  attr {
    key: "T"
    value {
      type: DT_INT32
    }
  }
  attr {
    key: "_output_shapes"
    value {
      list {
        shape {
        }
      }
    }
  }
  attr {
    key: "begin_mask"
    value {
      i: 0
    }
  }
  attr {
    key: "ellipsis_mask"
    value {
      i: 0
    }
  }
  attr {
    key: "end_mask"
    value {
      i: 0
    }
  }
  attr {
    key: "new_axis_mask"
    value {
      i: 0
    }
  }
  attr {
    key: "shrink_axis_mask"
    value {
      i: 1
    }
  }
}
node {
  name: "dnn/input_from_feature_columns/input_layer/DeltaPHI/Reshape/shape/1"
  op: "Const"
  attr {
    key: "_output_shapes"
    value {
      list {
        shape {
        }
      }
    }
  }
  attr {
    key: "dtype"
    value {
      type: DT_INT32
    }
  }
  attr {
    key: "value"
    value {
      tensor {
        dtype: DT_INT32
        tensor_shape {
        }
        int_val: 1
      }
    }
  }
}
node {
  name: "dnn/input_from_feature_columns/input_layer/DeltaPHI/Reshape/shape"
  op: "Pack"
  input: "dnn/input_from_feature_columns/input_layer/DeltaPHI/strided_slice"
  input: "dnn/input_from_feature_columns/input_layer/DeltaPHI/Reshape/shape/1"
  attr {
    key: "N"
    value {
      i: 2
    }
  }
  attr {
    key: "T"
    value {
      type: DT_INT32
    }
  }
  attr {
    key: "_output_shapes"
    value {
      list {
        shape {
          dim {
            size: 2
          }
        }
      }
    }
  }
  attr {
    key: "axis"
    value {
      i: 0
    }
  }
}
node {
  name: "dnn/input_from_feature_columns/input_layer/DeltaPHI/Reshape"
  op: "Reshape"
  input: "dnn/input_from_feature_columns/input_layer/DeltaPHI/ToFloat"
  input: "dnn/input_from_feature_columns/input_layer/DeltaPHI/Reshape/shape"
  attr {
    key: "T"
    value {
      type: DT_FLOAT
    }
  }
  attr {
    key: "Tshape"
    value {
      type: DT_INT32
    }
  }
  attr {
    key: "_output_shapes"
    value {
      list {
        shape {
          dim {
            size: -1
          }
          dim {
            size: 1
          }
        }
      }
    }
  }
}
node {
  name: "dnn/input_from_feature_columns/input_layer/Depth/ExpandDims/dim"
  op: "Const"
  attr {
    key: "_output_shapes"
    value {
      list {
        shape {
        }
      }
    }
  }
  attr {
    key: "dtype"
    value {
      type: DT_INT32
    }
  }
  attr {
    key: "value"
    value {
      tensor {
        dtype: DT_INT32
        tensor_shape {
        }
        int_val: -1
      }
    }
  }
}
node {
  name: "dnn/input_from_feature_columns/input_layer/Depth/ExpandDims"
  op: "ExpandDims"
  input: "IteratorGetNext:1"
  input: "dnn/input_from_feature_columns/input_layer/Depth/ExpandDims/dim"
  attr {
    key: "T"
    value {
      type: DT_DOUBLE
    }
  }
  attr {
    key: "Tdim"
    value {
      type: DT_INT32
    }
  }
  attr {
    key: "_output_shapes"
    value {
      list {
        shape {
          dim {
            size: -1
          }
          dim {
            size: 1
          }
        }
      }
    }
  }
}
node {
  name: "dnn/input_from_feature_columns/input_layer/Depth/ToFloat"
  op: "Cast"
  input: "dnn/input_from_feature_columns/input_layer/Depth/ExpandDims"
  attr {
    key: "DstT"
    value {
      type: DT_FLOAT
    }
  }
  attr {
    key: "SrcT"
    value {
      type: DT_DOUBLE
    }
  }
  attr {
    key: "Truncate"
    value {
      b: false
    }
  }
  attr {
    key: "_output_shapes"
    value {
      list {
        shape {
          dim {
            size: -1
          }
          dim {
            size: 1
          }
        }
      }
    }
  }
}
node {
  name: "dnn/input_from_feature_columns/input_layer/Depth/Shape"
  op: "Shape"
  input: "dnn/input_from_feature_columns/input_layer/Depth/ToFloat"
  attr {
    key: "T"
    value {
      type: DT_FLOAT
    }
  }
  attr {
    key: "_output_shapes"
    value {
      list {
        shape {
          dim {
            size: 2
          }
        }
      }
    }
  }
  attr {
    key: "out_type"
    value {
      type: DT_INT32
    }
  }
}
node {
  name: "dnn/input_from_feature_columns/input_layer/Depth/strided_slice/stack"
  op: "Const"
  attr {
    key: "_output_shapes"
    value {
      list {
        shape {
          dim {
            size: 1
          }
        }
      }
    }
  }
  attr {
    key: "dtype"
    value {
      type: DT_INT32
    }
  }
  attr {
    key: "value"
    value {
      tensor {
        dtype: DT_INT32
        tensor_shape {
          dim {
            size: 1
          }
        }
        int_val: 0
      }
    }
  }
}
node {
  name: "dnn/input_from_feature_columns/input_layer/Depth/strided_slice/stack_1"
  op: "Const"
  attr {
    key: "_output_shapes"
    value {
      list {
        shape {
          dim {
            size: 1
          }
        }
      }
    }
  }
  attr {
    key: "dtype"
    value {
      type: DT_INT32
    }
  }
  attr {
    key: "value"
    value {
      tensor {
        dtype: DT_INT32
        tensor_shape {
          dim {
            size: 1
          }
        }
        int_val: 1
      }
    }
  }
}
node {
  name: "dnn/input_from_feature_columns/input_layer/Depth/strided_slice/stack_2"
  op: "Const"
  attr {
    key: "_output_shapes"
    value {
      list {
        shape {
          dim {
            size: 1
          }
        }
      }
    }
  }
  attr {
    key: "dtype"
    value {
      type: DT_INT32
    }
  }
  attr {
    key: "value"
    value {
      tensor {
        dtype: DT_INT32
        tensor_shape {
          dim {
            size: 1
          }
        }
        int_val: 1
      }
    }
  }
}
node {
  name: "dnn/input_from_feature_columns/input_layer/Depth/strided_slice"
  op: "StridedSlice"
  input: "dnn/input_from_feature_columns/input_layer/Depth/Shape"
  input: "dnn/input_from_feature_columns/input_layer/Depth/strided_slice/stack"
  input: "dnn/input_from_feature_columns/input_layer/Depth/strided_slice/stack_1"
  input: "dnn/input_from_feature_columns/input_layer/Depth/strided_slice/stack_2"
  attr {
    key: "Index"
    value {
      type: DT_INT32
    }
  }
  attr {
    key: "T"
    value {
      type: DT_INT32
    }
  }
  attr {
    key: "_output_shapes"
    value {
      list {
        shape {
        }
      }
    }
  }
  attr {
    key: "begin_mask"
    value {
      i: 0
    }
  }
  attr {
    key: "ellipsis_mask"
    value {
      i: 0
    }
  }
  attr {
    key: "end_mask"
    value {
      i: 0
    }
  }
  attr {
    key: "new_axis_mask"
    value {
      i: 0
    }
  }
  attr {
    key: "shrink_axis_mask"
    value {
      i: 1
    }
  }
}
node {
  name: "dnn/input_from_feature_columns/input_layer/Depth/Reshape/shape/1"
  op: "Const"
  attr {
    key: "_output_shapes"
    value {
      list {
        shape {
        }
      }
    }
  }
  attr {
    key: "dtype"
    value {
      type: DT_INT32
    }
  }
  attr {
    key: "value"
    value {
      tensor {
        dtype: DT_INT32
        tensor_shape {
        }
        int_val: 1
      }
    }
  }
}
node {
  name: "dnn/input_from_feature_columns/input_layer/Depth/Reshape/shape"
  op: "Pack"
  input: "dnn/input_from_feature_columns/input_layer/Depth/strided_slice"
  input: "dnn/input_from_feature_columns/input_layer/Depth/Reshape/shape/1"
  attr {
    key: "N"
    value {
      i: 2
    }
  }
  attr {
    key: "T"
    value {
      type: DT_INT32
    }
  }
  attr {
    key: "_output_shapes"
    value {
      list {
        shape {
          dim {
            size: 2
          }
        }
      }
    }
  }
  attr {
    key: "axis"
    value {
      i: 0
    }
  }
}
node {
  name: "dnn/input_from_feature_columns/input_layer/Depth/Reshape"
  op: "Reshape"
  input: "dnn/input_from_feature_columns/input_layer/Depth/ToFloat"
  input: "dnn/input_from_feature_columns/input_layer/Depth/Reshape/shape"
  attr {
    key: "T"
    value {
      type: DT_FLOAT
    }
  }
  attr {
    key: "Tshape"
    value {
      type: DT_INT32
    }
  }
  attr {
    key: "_output_shapes"
    value {
      list {
        shape {
          dim {
            size: -1
          }
          dim {
            size: 1
          }
        }
      }
    }
  }
}
node {
  name: "dnn/input_from_feature_columns/input_layer/GR/ExpandDims/dim"
  op: "Const"
  attr {
    key: "_output_shapes"
    value {
      list {
        shape {
        }
      }
    }
  }
  attr {
    key: "dtype"
    value {
      type: DT_INT32
    }
  }
  attr {
    key: "value"
    value {
      tensor {
        dtype: DT_INT32
        tensor_shape {
        }
        int_val: -1
      }
    }
  }
}
node {
  name: "dnn/input_from_feature_columns/input_layer/GR/ExpandDims"
  op: "ExpandDims"
  input: "IteratorGetNext:2"
  input: "dnn/input_from_feature_columns/input_layer/GR/ExpandDims/dim"
  attr {
    key: "T"
    value {
      type: DT_DOUBLE
    }
  }
  attr {
    key: "Tdim"
    value {
      type: DT_INT32
    }
  }
  attr {
    key: "_output_shapes"
    value {
      list {
        shape {
          dim {
            size: -1
          }
          dim {
            size: 1
          }
        }
      }
    }
  }
}
node {
  name: "dnn/input_from_feature_columns/input_layer/GR/ToFloat"
  op: "Cast"
  input: "dnn/input_from_feature_columns/input_layer/GR/ExpandDims"
  attr {
    key: "DstT"
    value {
      type: DT_FLOAT
    }
  }
  attr {
    key: "SrcT"
    value {
      type: DT_DOUBLE
    }
  }
  attr {
    key: "Truncate"
    value {
      b: false
    }
  }
  attr {
    key: "_output_shapes"
    value {
      list {
        shape {
          dim {
            size: -1
          }
          dim {
            size: 1
          }
        }
      }
    }
  }
}
node {
  name: "dnn/input_from_feature_columns/input_layer/GR/Shape"
  op: "Shape"
  input: "dnn/input_from_feature_columns/input_layer/GR/ToFloat"
  attr {
    key: "T"
    value {
      type: DT_FLOAT
    }
  }
  attr {
    key: "_output_shapes"
    value {
      list {
        shape {
          dim {
            size: 2
          }
        }
      }
    }
  }
  attr {
    key: "out_type"
    value {
      type: DT_INT32
    }
  }
}
node {
  name: "dnn/input_from_feature_columns/input_layer/GR/strided_slice/stack"
  op: "Const"
  attr {
    key: "_output_shapes"
    value {
      list {
        shape {
          dim {
            size: 1
          }
        }
      }
    }
  }
  attr {
    key: "dtype"
    value {
      type: DT_INT32
    }
  }
  attr {
    key: "value"
    value {
      tensor {
        dtype: DT_INT32
        tensor_shape {
          dim {
            size: 1
          }
        }
        int_val: 0
      }
    }
  }
}
node {
  name: "dnn/input_from_feature_columns/input_layer/GR/strided_slice/stack_1"
  op: "Const"
  attr {
    key: "_output_shapes"
    value {
      list {
        shape {
          dim {
            size: 1
          }
        }
      }
    }
  }
  attr {
    key: "dtype"
    value {
      type: DT_INT32
    }
  }
  attr {
    key: "value"
    value {
      tensor {
        dtype: DT_INT32
        tensor_shape {
          dim {
            size: 1
          }
        }
        int_val: 1
      }
    }
  }
}
node {
  name: "dnn/input_from_feature_columns/input_layer/GR/strided_slice/stack_2"
  op: "Const"
  attr {
    key: "_output_shapes"
    value {
      list {
        shape {
          dim {
            size: 1
          }
        }
      }
    }
  }
  attr {
    key: "dtype"
    value {
      type: DT_INT32
    }
  }
  attr {
    key: "value"
    value {
      tensor {
        dtype: DT_INT32
        tensor_shape {
          dim {
            size: 1
          }
        }
        int_val: 1
      }
    }
  }
}
node {
  name: "dnn/input_from_feature_columns/input_layer/GR/strided_slice"
  op: "StridedSlice"
  input: "dnn/input_from_feature_columns/input_layer/GR/Shape"
  input: "dnn/input_from_feature_columns/input_layer/GR/strided_slice/stack"
  input: "dnn/input_from_feature_columns/input_layer/GR/strided_slice/stack_1"
  input: "dnn/input_from_feature_columns/input_layer/GR/strided_slice/stack_2"
  attr {
    key: "Index"
    value {
      type: DT_INT32
    }
  }
  attr {
    key: "T"
    value {
      type: DT_INT32
    }
  }
  attr {
    key: "_output_shapes"
    value {
      list {
        shape {
        }
      }
    }
  }
  attr {
    key: "begin_mask"
    value {
      i: 0
    }
  }
  attr {
    key: "ellipsis_mask"
    value {
      i: 0
    }
  }
  attr {
    key: "end_mask"
    value {
      i: 0
    }
  }
  attr {
    key: "new_axis_mask"
    value {
      i: 0
    }
  }
  attr {
    key: "shrink_axis_mask"
    value {
      i: 1
    }
  }
}
node {
  name: "dnn/input_from_feature_columns/input_layer/GR/Reshape/shape/1"
  op: "Const"
  attr {
    key: "_output_shapes"
    value {
      list {
        shape {
        }
      }
    }
  }
  attr {
    key: "dtype"
    value {
      type: DT_INT32
    }
  }
  attr {
    key: "value"
    value {
      tensor {
        dtype: DT_INT32
        tensor_shape {
        }
        int_val: 1
      }
    }
  }
}
node {
  name: "dnn/input_from_feature_columns/input_layer/GR/Reshape/shape"
  op: "Pack"
  input: "dnn/input_from_feature_columns/input_layer/GR/strided_slice"
  input: "dnn/input_from_feature_columns/input_layer/GR/Reshape/shape/1"
  attr {
    key: "N"
    value {
      i: 2
    }
  }
  attr {
    key: "T"
    value {
      type: DT_INT32
    }
  }
  attr {
    key: "_output_shapes"
    value {
      list {
        shape {
          dim {
            size: 2
          }
        }
      }
    }
  }
  attr {
    key: "axis"
    value {
      i: 0
    }
  }
}
node {
  name: "dnn/input_from_feature_columns/input_layer/GR/Reshape"
  op: "Reshape"
  input: "dnn/input_from_feature_columns/input_layer/GR/ToFloat"
  input: "dnn/input_from_feature_columns/input_layer/GR/Reshape/shape"
  attr {
    key: "T"
    value {
      type: DT_FLOAT
    }
  }
  attr {
    key: "Tshape"
    value {
      type: DT_INT32
    }
  }
  attr {
    key: "_output_shapes"
    value {
      list {
        shape {
          dim {
            size: -1
          }
          dim {
            size: 1
          }
        }
      }
    }
  }
}
node {
  name: "dnn/input_from_feature_columns/input_layer/ILD_log10/ExpandDims/dim"
  op: "Const"
  attr {
    key: "_output_shapes"
    value {
      list {
        shape {
        }
      }
    }
  }
  attr {
    key: "dtype"
    value {
      type: DT_INT32
    }
  }
  attr {
    key: "value"
    value {
      tensor {
        dtype: DT_INT32
        tensor_shape {
        }
        int_val: -1
      }
    }
  }
}
node {
  name: "dnn/input_from_feature_columns/input_layer/ILD_log10/ExpandDims"
  op: "ExpandDims"
  input: "IteratorGetNext:3"
  input: "dnn/input_from_feature_columns/input_layer/ILD_log10/ExpandDims/dim"
  attr {
    key: "T"
    value {
      type: DT_DOUBLE
    }
  }
  attr {
    key: "Tdim"
    value {
      type: DT_INT32
    }
  }
  attr {
    key: "_output_shapes"
    value {
      list {
        shape {
          dim {
            size: -1
          }
          dim {
            size: 1
          }
        }
      }
    }
  }
}
node {
  name: "dnn/input_from_feature_columns/input_layer/ILD_log10/ToFloat"
  op: "Cast"
  input: "dnn/input_from_feature_columns/input_layer/ILD_log10/ExpandDims"
  attr {
    key: "DstT"
    value {
      type: DT_FLOAT
    }
  }
  attr {
    key: "SrcT"
    value {
      type: DT_DOUBLE
    }
  }
  attr {
    key: "Truncate"
    value {
      b: false
    }
  }
  attr {
    key: "_output_shapes"
    value {
      list {
        shape {
          dim {
            size: -1
          }
          dim {
            size: 1
          }
        }
      }
    }
  }
}
node {
  name: "dnn/input_from_feature_columns/input_layer/ILD_log10/Shape"
  op: "Shape"
  input: "dnn/input_from_feature_columns/input_layer/ILD_log10/ToFloat"
  attr {
    key: "T"
    value {
      type: DT_FLOAT
    }
  }
  attr {
    key: "_output_shapes"
    value {
      list {
        shape {
          dim {
            size: 2
          }
        }
      }
    }
  }
  attr {
    key: "out_type"
    value {
      type: DT_INT32
    }
  }
}
node {
  name: "dnn/input_from_feature_columns/input_layer/ILD_log10/strided_slice/stack"
  op: "Const"
  attr {
    key: "_output_shapes"
    value {
      list {
        shape {
          dim {
            size: 1
          }
        }
      }
    }
  }
  attr {
    key: "dtype"
    value {
      type: DT_INT32
    }
  }
  attr {
    key: "value"
    value {
      tensor {
        dtype: DT_INT32
        tensor_shape {
          dim {
            size: 1
          }
        }
        int_val: 0
      }
    }
  }
}
node {
  name: "dnn/input_from_feature_columns/input_layer/ILD_log10/strided_slice/stack_1"
  op: "Const"
  attr {
    key: "_output_shapes"
    value {
      list {
        shape {
          dim {
            size: 1
          }
        }
      }
    }
  }
  attr {
    key: "dtype"
    value {
      type: DT_INT32
    }
  }
  attr {
    key: "value"
    value {
      tensor {
        dtype: DT_INT32
        tensor_shape {
          dim {
            size: 1
          }
        }
        int_val: 1
      }
    }
  }
}
node {
  name: "dnn/input_from_feature_columns/input_layer/ILD_log10/strided_slice/stack_2"
  op: "Const"
  attr {
    key: "_output_shapes"
    value {
      list {
        shape {
          dim {
            size: 1
          }
        }
      }
    }
  }
  attr {
    key: "dtype"
    value {
      type: DT_INT32
    }
  }
  attr {
    key: "value"
    value {
      tensor {
        dtype: DT_INT32
        tensor_shape {
          dim {
            size: 1
          }
        }
        int_val: 1
      }
    }
  }
}
node {
  name: "dnn/input_from_feature_columns/input_layer/ILD_log10/strided_slice"
  op: "StridedSlice"
  input: "dnn/input_from_feature_columns/input_layer/ILD_log10/Shape"
  input: "dnn/input_from_feature_columns/input_layer/ILD_log10/strided_slice/stack"
  input: "dnn/input_from_feature_columns/input_layer/ILD_log10/strided_slice/stack_1"
  input: "dnn/input_from_feature_columns/input_layer/ILD_log10/strided_slice/stack_2"
  attr {
    key: "Index"
    value {
      type: DT_INT32
    }
  }
  attr {
    key: "T"
    value {
      type: DT_INT32
    }
  }
  attr {
    key: "_output_shapes"
    value {
      list {
        shape {
        }
      }
    }
  }
  attr {
    key: "begin_mask"
    value {
      i: 0
    }
  }
  attr {
    key: "ellipsis_mask"
    value {
      i: 0
    }
  }
  attr {
    key: "end_mask"
    value {
      i: 0
    }
  }
  attr {
    key: "new_axis_mask"
    value {
      i: 0
    }
  }
  attr {
    key: "shrink_axis_mask"
    value {
      i: 1
    }
  }
}
node {
  name: "dnn/input_from_feature_columns/input_layer/ILD_log10/Reshape/shape/1"
  op: "Const"
  attr {
    key: "_output_shapes"
    value {
      list {
        shape {
        }
      }
    }
  }
  attr {
    key: "dtype"
    value {
      type: DT_INT32
    }
  }
  attr {
    key: "value"
    value {
      tensor {
        dtype: DT_INT32
        tensor_shape {
        }
        int_val: 1
      }
    }
  }
}
node {
  name: "dnn/input_from_feature_columns/input_layer/ILD_log10/Reshape/shape"
  op: "Pack"
  input: "dnn/input_from_feature_columns/input_layer/ILD_log10/strided_slice"
  input: "dnn/input_from_feature_columns/input_layer/ILD_log10/Reshape/shape/1"
  attr {
    key: "N"
    value {
      i: 2
    }
  }
  attr {
    key: "T"
    value {
      type: DT_INT32
    }
  }
  attr {
    key: "_output_shapes"
    value {
      list {
        shape {
          dim {
            size: 2
          }
        }
      }
    }
  }
  attr {
    key: "axis"
    value {
      i: 0
    }
  }
}
node {
  name: "dnn/input_from_feature_columns/input_layer/ILD_log10/Reshape"
  op: "Reshape"
  input: "dnn/input_from_feature_columns/input_layer/ILD_log10/ToFloat"
  input: "dnn/input_from_feature_columns/input_layer/ILD_log10/Reshape/shape"
  attr {
    key: "T"
    value {
      type: DT_FLOAT
    }
  }
  attr {
    key: "Tshape"
    value {
      type: DT_INT32
    }
  }
  attr {
    key: "_output_shapes"
    value {
      list {
        shape {
          dim {
            size: -1
          }
          dim {
            size: 1
          }
        }
      }
    }
  }
}
node {
  name: "dnn/input_from_feature_columns/input_layer/PE/ExpandDims/dim"
  op: "Const"
  attr {
    key: "_output_shapes"
    value {
      list {
        shape {
        }
      }
    }
  }
  attr {
    key: "dtype"
    value {
      type: DT_INT32
    }
  }
  attr {
    key: "value"
    value {
      tensor {
        dtype: DT_INT32
        tensor_shape {
        }
        int_val: -1
      }
    }
  }
}
node {
  name: "dnn/input_from_feature_columns/input_layer/PE/ExpandDims"
  op: "ExpandDims"
  input: "IteratorGetNext:5"
  input: "dnn/input_from_feature_columns/input_layer/PE/ExpandDims/dim"
  attr {
    key: "T"
    value {
      type: DT_DOUBLE
    }
  }
  attr {
    key: "Tdim"
    value {
      type: DT_INT32
    }
  }
  attr {
    key: "_output_shapes"
    value {
      list {
        shape {
          dim {
            size: -1
          }
          dim {
            size: 1
          }
        }
      }
    }
  }
}
node {
  name: "dnn/input_from_feature_columns/input_layer/PE/ToFloat"
  op: "Cast"
  input: "dnn/input_from_feature_columns/input_layer/PE/ExpandDims"
  attr {
    key: "DstT"
    value {
      type: DT_FLOAT
    }
  }
  attr {
    key: "SrcT"
    value {
      type: DT_DOUBLE
    }
  }
  attr {
    key: "Truncate"
    value {
      b: false
    }
  }
  attr {
    key: "_output_shapes"
    value {
      list {
        shape {
          dim {
            size: -1
          }
          dim {
            size: 1
          }
        }
      }
    }
  }
}
node {
  name: "dnn/input_from_feature_columns/input_layer/PE/Shape"
  op: "Shape"
  input: "dnn/input_from_feature_columns/input_layer/PE/ToFloat"
  attr {
    key: "T"
    value {
      type: DT_FLOAT
    }
  }
  attr {
    key: "_output_shapes"
    value {
      list {
        shape {
          dim {
            size: 2
          }
        }
      }
    }
  }
  attr {
    key: "out_type"
    value {
      type: DT_INT32
    }
  }
}
node {
  name: "dnn/input_from_feature_columns/input_layer/PE/strided_slice/stack"
  op: "Const"
  attr {
    key: "_output_shapes"
    value {
      list {
        shape {
          dim {
            size: 1
          }
        }
      }
    }
  }
  attr {
    key: "dtype"
    value {
      type: DT_INT32
    }
  }
  attr {
    key: "value"
    value {
      tensor {
        dtype: DT_INT32
        tensor_shape {
          dim {
            size: 1
          }
        }
        int_val: 0
      }
    }
  }
}
node {
  name: "dnn/input_from_feature_columns/input_layer/PE/strided_slice/stack_1"
  op: "Const"
  attr {
    key: "_output_shapes"
    value {
      list {
        shape {
          dim {
            size: 1
          }
        }
      }
    }
  }
  attr {
    key: "dtype"
    value {
      type: DT_INT32
    }
  }
  attr {
    key: "value"
    value {
      tensor {
        dtype: DT_INT32
        tensor_shape {
          dim {
            size: 1
          }
        }
        int_val: 1
      }
    }
  }
}
node {
  name: "dnn/input_from_feature_columns/input_layer/PE/strided_slice/stack_2"
  op: "Const"
  attr {
    key: "_output_shapes"
    value {
      list {
        shape {
          dim {
            size: 1
          }
        }
      }
    }
  }
  attr {
    key: "dtype"
    value {
      type: DT_INT32
    }
  }
  attr {
    key: "value"
    value {
      tensor {
        dtype: DT_INT32
        tensor_shape {
          dim {
            size: 1
          }
        }
        int_val: 1
      }
    }
  }
}
node {
  name: "dnn/input_from_feature_columns/input_layer/PE/strided_slice"
  op: "StridedSlice"
  input: "dnn/input_from_feature_columns/input_layer/PE/Shape"
  input: "dnn/input_from_feature_columns/input_layer/PE/strided_slice/stack"
  input: "dnn/input_from_feature_columns/input_layer/PE/strided_slice/stack_1"
  input: "dnn/input_from_feature_columns/input_layer/PE/strided_slice/stack_2"
  attr {
    key: "Index"
    value {
      type: DT_INT32
    }
  }
  attr {
    key: "T"
    value {
      type: DT_INT32
    }
  }
  attr {
    key: "_output_shapes"
    value {
      list {
        shape {
        }
      }
    }
  }
  attr {
    key: "begin_mask"
    value {
      i: 0
    }
  }
  attr {
    key: "ellipsis_mask"
    value {
      i: 0
    }
  }
  attr {
    key: "end_mask"
    value {
      i: 0
    }
  }
  attr {
    key: "new_axis_mask"
    value {
      i: 0
    }
  }
  attr {
    key: "shrink_axis_mask"
    value {
      i: 1
    }
  }
}
node {
  name: "dnn/input_from_feature_columns/input_layer/PE/Reshape/shape/1"
  op: "Const"
  attr {
    key: "_output_shapes"
    value {
      list {
        shape {
        }
      }
    }
  }
  attr {
    key: "dtype"
    value {
      type: DT_INT32
    }
  }
  attr {
    key: "value"
    value {
      tensor {
        dtype: DT_INT32
        tensor_shape {
        }
        int_val: 1
      }
    }
  }
}
node {
  name: "dnn/input_from_feature_columns/input_layer/PE/Reshape/shape"
  op: "Pack"
  input: "dnn/input_from_feature_columns/input_layer/PE/strided_slice"
  input: "dnn/input_from_feature_columns/input_layer/PE/Reshape/shape/1"
  attr {
    key: "N"
    value {
      i: 2
    }
  }
  attr {
    key: "T"
    value {
      type: DT_INT32
    }
  }
  attr {
    key: "_output_shapes"
    value {
      list {
        shape {
          dim {
            size: 2
          }
        }
      }
    }
  }
  attr {
    key: "axis"
    value {
      i: 0
    }
  }
}
node {
  name: "dnn/input_from_feature_columns/input_layer/PE/Reshape"
  op: "Reshape"
  input: "dnn/input_from_feature_columns/input_layer/PE/ToFloat"
  input: "dnn/input_from_feature_columns/input_layer/PE/Reshape/shape"
  attr {
    key: "T"
    value {
      type: DT_FLOAT
    }
  }
  attr {
    key: "Tshape"
    value {
      type: DT_INT32
    }
  }
  attr {
    key: "_output_shapes"
    value {
      list {
        shape {
          dim {
            size: -1
          }
          dim {
            size: 1
          }
        }
      }
    }
  }
}
node {
  name: "dnn/input_from_feature_columns/input_layer/PHIND/ExpandDims/dim"
  op: "Const"
  attr {
    key: "_output_shapes"
    value {
      list {
        shape {
        }
      }
    }
  }
  attr {
    key: "dtype"
    value {
      type: DT_INT32
    }
  }
  attr {
    key: "value"
    value {
      tensor {
        dtype: DT_INT32
        tensor_shape {
        }
        int_val: -1
      }
    }
  }
}
node {
  name: "dnn/input_from_feature_columns/input_layer/PHIND/ExpandDims"
  op: "ExpandDims"
  input: "IteratorGetNext:6"
  input: "dnn/input_from_feature_columns/input_layer/PHIND/ExpandDims/dim"
  attr {
    key: "T"
    value {
      type: DT_DOUBLE
    }
  }
  attr {
    key: "Tdim"
    value {
      type: DT_INT32
    }
  }
  attr {
    key: "_output_shapes"
    value {
      list {
        shape {
          dim {
            size: -1
          }
          dim {
            size: 1
          }
        }
      }
    }
  }
}
node {
  name: "dnn/input_from_feature_columns/input_layer/PHIND/ToFloat"
  op: "Cast"
  input: "dnn/input_from_feature_columns/input_layer/PHIND/ExpandDims"
  attr {
    key: "DstT"
    value {
      type: DT_FLOAT
    }
  }
  attr {
    key: "SrcT"
    value {
      type: DT_DOUBLE
    }
  }
  attr {
    key: "Truncate"
    value {
      b: false
    }
  }
  attr {
    key: "_output_shapes"
    value {
      list {
        shape {
          dim {
            size: -1
          }
          dim {
            size: 1
          }
        }
      }
    }
  }
}
node {
  name: "dnn/input_from_feature_columns/input_layer/PHIND/Shape"
  op: "Shape"
  input: "dnn/input_from_feature_columns/input_layer/PHIND/ToFloat"
  attr {
    key: "T"
    value {
      type: DT_FLOAT
    }
  }
  attr {
    key: "_output_shapes"
    value {
      list {
        shape {
          dim {
            size: 2
          }
        }
      }
    }
  }
  attr {
    key: "out_type"
    value {
      type: DT_INT32
    }
  }
}
node {
  name: "dnn/input_from_feature_columns/input_layer/PHIND/strided_slice/stack"
  op: "Const"
  attr {
    key: "_output_shapes"
    value {
      list {
        shape {
          dim {
            size: 1
          }
        }
      }
    }
  }
  attr {
    key: "dtype"
    value {
      type: DT_INT32
    }
  }
  attr {
    key: "value"
    value {
      tensor {
        dtype: DT_INT32
        tensor_shape {
          dim {
            size: 1
          }
        }
        int_val: 0
      }
    }
  }
}
node {
  name: "dnn/input_from_feature_columns/input_layer/PHIND/strided_slice/stack_1"
  op: "Const"
  attr {
    key: "_output_shapes"
    value {
      list {
        shape {
          dim {
            size: 1
          }
        }
      }
    }
  }
  attr {
    key: "dtype"
    value {
      type: DT_INT32
    }
  }
  attr {
    key: "value"
    value {
      tensor {
        dtype: DT_INT32
        tensor_shape {
          dim {
            size: 1
          }
        }
        int_val: 1
      }
    }
  }
}
node {
  name: "dnn/input_from_feature_columns/input_layer/PHIND/strided_slice/stack_2"
  op: "Const"
  attr {
    key: "_output_shapes"
    value {
      list {
        shape {
          dim {
            size: 1
          }
        }
      }
    }
  }
  attr {
    key: "dtype"
    value {
      type: DT_INT32
    }
  }
  attr {
    key: "value"
    value {
      tensor {
        dtype: DT_INT32
        tensor_shape {
          dim {
            size: 1
          }
        }
        int_val: 1
      }
    }
  }
}
node {
  name: "dnn/input_from_feature_columns/input_layer/PHIND/strided_slice"
  op: "StridedSlice"
  input: "dnn/input_from_feature_columns/input_layer/PHIND/Shape"
  input: "dnn/input_from_feature_columns/input_layer/PHIND/strided_slice/stack"
  input: "dnn/input_from_feature_columns/input_layer/PHIND/strided_slice/stack_1"
  input: "dnn/input_from_feature_columns/input_layer/PHIND/strided_slice/stack_2"
  attr {
    key: "Index"
    value {
      type: DT_INT32
    }
  }
  attr {
    key: "T"
    value {
      type: DT_INT32
    }
  }
  attr {
    key: "_output_shapes"
    value {
      list {
        shape {
        }
      }
    }
  }
  attr {
    key: "begin_mask"
    value {
      i: 0
    }
  }
  attr {
    key: "ellipsis_mask"
    value {
      i: 0
    }
  }
  attr {
    key: "end_mask"
    value {
      i: 0
    }
  }
  attr {
    key: "new_axis_mask"
    value {
      i: 0
    }
  }
  attr {
    key: "shrink_axis_mask"
    value {
      i: 1
    }
  }
}
node {
  name: "dnn/input_from_feature_columns/input_layer/PHIND/Reshape/shape/1"
  op: "Const"
  attr {
    key: "_output_shapes"
    value {
      list {
        shape {
        }
      }
    }
  }
  attr {
    key: "dtype"
    value {
      type: DT_INT32
    }
  }
  attr {
    key: "value"
    value {
      tensor {
        dtype: DT_INT32
        tensor_shape {
        }
        int_val: 1
      }
    }
  }
}
node {
  name: "dnn/input_from_feature_columns/input_layer/PHIND/Reshape/shape"
  op: "Pack"
  input: "dnn/input_from_feature_columns/input_layer/PHIND/strided_slice"
  input: "dnn/input_from_feature_columns/input_layer/PHIND/Reshape/shape/1"
  attr {
    key: "N"
    value {
      i: 2
    }
  }
  attr {
    key: "T"
    value {
      type: DT_INT32
    }
  }
  attr {
    key: "_output_shapes"
    value {
      list {
        shape {
          dim {
            size: 2
          }
        }
      }
    }
  }
  attr {
    key: "axis"
    value {
      i: 0
    }
  }
}
node {
  name: "dnn/input_from_feature_columns/input_layer/PHIND/Reshape"
  op: "Reshape"
  input: "dnn/input_from_feature_columns/input_layer/PHIND/ToFloat"
  input: "dnn/input_from_feature_columns/input_layer/PHIND/Reshape/shape"
  attr {
    key: "T"
    value {
      type: DT_FLOAT
    }
  }
  attr {
    key: "Tshape"
    value {
      type: DT_INT32
    }
  }
  attr {
    key: "_output_shapes"
    value {
      list {
        shape {
          dim {
            size: -1
          }
          dim {
            size: 1
          }
        }
      }
    }
  }
}
node {
  name: "dnn/input_from_feature_columns/input_layer/RELPOS/ExpandDims/dim"
  op: "Const"
  attr {
    key: "_output_shapes"
    value {
      list {
        shape {
        }
      }
    }
  }
  attr {
    key: "dtype"
    value {
      type: DT_INT32
    }
  }
  attr {
    key: "value"
    value {
      tensor {
        dtype: DT_INT32
        tensor_shape {
        }
        int_val: -1
      }
    }
  }
}
node {
  name: "dnn/input_from_feature_columns/input_layer/RELPOS/ExpandDims"
  op: "ExpandDims"
  input: "IteratorGetNext:7"
  input: "dnn/input_from_feature_columns/input_layer/RELPOS/ExpandDims/dim"
  attr {
    key: "T"
    value {
      type: DT_DOUBLE
    }
  }
  attr {
    key: "Tdim"
    value {
      type: DT_INT32
    }
  }
  attr {
    key: "_output_shapes"
    value {
      list {
        shape {
          dim {
            size: -1
          }
          dim {
            size: 1
          }
        }
      }
    }
  }
}
node {
  name: "dnn/input_from_feature_columns/input_layer/RELPOS/ToFloat"
  op: "Cast"
  input: "dnn/input_from_feature_columns/input_layer/RELPOS/ExpandDims"
  attr {
    key: "DstT"
    value {
      type: DT_FLOAT
    }
  }
  attr {
    key: "SrcT"
    value {
      type: DT_DOUBLE
    }
  }
  attr {
    key: "Truncate"
    value {
      b: false
    }
  }
  attr {
    key: "_output_shapes"
    value {
      list {
        shape {
          dim {
            size: -1
          }
          dim {
            size: 1
          }
        }
      }
    }
  }
}
node {
  name: "dnn/input_from_feature_columns/input_layer/RELPOS/Shape"
  op: "Shape"
  input: "dnn/input_from_feature_columns/input_layer/RELPOS/ToFloat"
  attr {
    key: "T"
    value {
      type: DT_FLOAT
    }
  }
  attr {
    key: "_output_shapes"
    value {
      list {
        shape {
          dim {
            size: 2
          }
        }
      }
    }
  }
  attr {
    key: "out_type"
    value {
      type: DT_INT32
    }
  }
}
node {
  name: "dnn/input_from_feature_columns/input_layer/RELPOS/strided_slice/stack"
  op: "Const"
  attr {
    key: "_output_shapes"
    value {
      list {
        shape {
          dim {
            size: 1
          }
        }
      }
    }
  }
  attr {
    key: "dtype"
    value {
      type: DT_INT32
    }
  }
  attr {
    key: "value"
    value {
      tensor {
        dtype: DT_INT32
        tensor_shape {
          dim {
            size: 1
          }
        }
        int_val: 0
      }
    }
  }
}
node {
  name: "dnn/input_from_feature_columns/input_layer/RELPOS/strided_slice/stack_1"
  op: "Const"
  attr {
    key: "_output_shapes"
    value {
      list {
        shape {
          dim {
            size: 1
          }
        }
      }
    }
  }
  attr {
    key: "dtype"
    value {
      type: DT_INT32
    }
  }
  attr {
    key: "value"
    value {
      tensor {
        dtype: DT_INT32
        tensor_shape {
          dim {
            size: 1
          }
        }
        int_val: 1
      }
    }
  }
}
node {
  name: "dnn/input_from_feature_columns/input_layer/RELPOS/strided_slice/stack_2"
  op: "Const"
  attr {
    key: "_output_shapes"
    value {
      list {
        shape {
          dim {
            size: 1
          }
        }
      }
    }
  }
  attr {
    key: "dtype"
    value {
      type: DT_INT32
    }
  }
  attr {
    key: "value"
    value {
      tensor {
        dtype: DT_INT32
        tensor_shape {
          dim {
            size: 1
          }
        }
        int_val: 1
      }
    }
  }
}
node {
  name: "dnn/input_from_feature_columns/input_layer/RELPOS/strided_slice"
  op: "StridedSlice"
  input: "dnn/input_from_feature_columns/input_layer/RELPOS/Shape"
  input: "dnn/input_from_feature_columns/input_layer/RELPOS/strided_slice/stack"
  input: "dnn/input_from_feature_columns/input_layer/RELPOS/strided_slice/stack_1"
  input: "dnn/input_from_feature_columns/input_layer/RELPOS/strided_slice/stack_2"
  attr {
    key: "Index"
    value {
      type: DT_INT32
    }
  }
  attr {
    key: "T"
    value {
      type: DT_INT32
    }
  }
  attr {
    key: "_output_shapes"
    value {
      list {
        shape {
        }
      }
    }
  }
  attr {
    key: "begin_mask"
    value {
      i: 0
    }
  }
  attr {
    key: "ellipsis_mask"
    value {
      i: 0
    }
  }
  attr {
    key: "end_mask"
    value {
      i: 0
    }
  }
  attr {
    key: "new_axis_mask"
    value {
      i: 0
    }
  }
  attr {
    key: "shrink_axis_mask"
    value {
      i: 1
    }
  }
}
node {
  name: "dnn/input_from_feature_columns/input_layer/RELPOS/Reshape/shape/1"
  op: "Const"
  attr {
    key: "_output_shapes"
    value {
      list {
        shape {
        }
      }
    }
  }
  attr {
    key: "dtype"
    value {
      type: DT_INT32
    }
  }
  attr {
    key: "value"
    value {
      tensor {
        dtype: DT_INT32
        tensor_shape {
        }
        int_val: 1
      }
    }
  }
}
node {
  name: "dnn/input_from_feature_columns/input_layer/RELPOS/Reshape/shape"
  op: "Pack"
  input: "dnn/input_from_feature_columns/input_layer/RELPOS/strided_slice"
  input: "dnn/input_from_feature_columns/input_layer/RELPOS/Reshape/shape/1"
  attr {
    key: "N"
    value {
      i: 2
    }
  }
  attr {
    key: "T"
    value {
      type: DT_INT32
    }
  }
  attr {
    key: "_output_shapes"
    value {
      list {
        shape {
          dim {
            size: 2
          }
        }
      }
    }
  }
  attr {
    key: "axis"
    value {
      i: 0
    }
  }
}
node {
  name: "dnn/input_from_feature_columns/input_layer/RELPOS/Reshape"
  op: "Reshape"
  input: "dnn/input_from_feature_columns/input_layer/RELPOS/ToFloat"
  input: "dnn/input_from_feature_columns/input_layer/RELPOS/Reshape/shape"
  attr {
    key: "T"
    value {
      type: DT_FLOAT
    }
  }
  attr {
    key: "Tshape"
    value {
      type: DT_INT32
    }
  }
  attr {
    key: "_output_shapes"
    value {
      list {
        shape {
          dim {
            size: -1
          }
          dim {
            size: 1
          }
        }
      }
    }
  }
}
node {
  name: "dnn/input_from_feature_columns/input_layer/concat/axis"
  op: "Const"
  attr {
    key: "_output_shapes"
    value {
      list {
        shape {
        }
      }
    }
  }
  attr {
    key: "dtype"
    value {
      type: DT_INT32
    }
  }
  attr {
    key: "value"
    value {
      tensor {
        dtype: DT_INT32
        tensor_shape {
        }
        int_val: 1
      }
    }
  }
}
node {
  name: "dnn/input_from_feature_columns/input_layer/concat"
  op: "ConcatV2"
  input: "dnn/input_from_feature_columns/input_layer/DeltaPHI/Reshape"
  input: "dnn/input_from_feature_columns/input_layer/Depth/Reshape"
  input: "dnn/input_from_feature_columns/input_layer/GR/Reshape"
  input: "dnn/input_from_feature_columns/input_layer/ILD_log10/Reshape"
  input: "dnn/input_from_feature_columns/input_layer/PE/Reshape"
  input: "dnn/input_from_feature_columns/input_layer/PHIND/Reshape"
  input: "dnn/input_from_feature_columns/input_layer/RELPOS/Reshape"
  input: "dnn/input_from_feature_columns/input_layer/concat/axis"
  attr {
    key: "N"
    value {
      i: 7
    }
  }
  attr {
    key: "T"
    value {
      type: DT_FLOAT
    }
  }
  attr {
    key: "Tidx"
    value {
      type: DT_INT32
    }
  }
  attr {
    key: "_output_shapes"
    value {
      list {
        shape {
          dim {
            size: -1
          }
          dim {
            size: 7
          }
        }
      }
    }
  }
}
node {
  name: "dnn/hiddenlayer_0/kernel/part_0/Initializer/random_uniform/shape"
  op: "Const"
  attr {
    key: "_class"
    value {
      list {
        s: "loc:@dnn/hiddenlayer_0/kernel/part_0"
      }
    }
  }
  attr {
    key: "_output_shapes"
    value {
      list {
        shape {
          dim {
            size: 2
          }
        }
      }
    }
  }
  attr {
    key: "dtype"
    value {
      type: DT_INT32
    }
  }
  attr {
    key: "value"
    value {
      tensor {
        dtype: DT_INT32
        tensor_shape {
          dim {
            size: 2
          }
        }
        tensor_content: "\007\000\000\000\364\001\000\000"
      }
    }
  }
}
node {
  name: "dnn/hiddenlayer_0/kernel/part_0/Initializer/random_uniform/min"
  op: "Const"
  attr {
    key: "_class"
    value {
      list {
        s: "loc:@dnn/hiddenlayer_0/kernel/part_0"
      }
    }
  }
  attr {
    key: "_output_shapes"
    value {
      list {
        shape {
        }
      }
    }
  }
  attr {
    key: "dtype"
    value {
      type: DT_FLOAT
    }
  }
  attr {
    key: "value"
    value {
      tensor {
        dtype: DT_FLOAT
        tensor_shape {
        }
        float_val: -0.10878565907478333
      }
    }
  }
}
node {
  name: "dnn/hiddenlayer_0/kernel/part_0/Initializer/random_uniform/max"
  op: "Const"
  attr {
    key: "_class"
    value {
      list {
        s: "loc:@dnn/hiddenlayer_0/kernel/part_0"
      }
    }
  }
  attr {
    key: "_output_shapes"
    value {
      list {
        shape {
        }
      }
    }
  }
  attr {
    key: "dtype"
    value {
      type: DT_FLOAT
    }
  }
  attr {
    key: "value"
    value {
      tensor {
        dtype: DT_FLOAT
        tensor_shape {
        }
        float_val: 0.10878565907478333
      }
    }
  }
}
node {
  name: "dnn/hiddenlayer_0/kernel/part_0/Initializer/random_uniform/RandomUniform"
  op: "RandomUniform"
  input: "dnn/hiddenlayer_0/kernel/part_0/Initializer/random_uniform/shape"
  attr {
    key: "T"
    value {
      type: DT_INT32
    }
  }
  attr {
    key: "_class"
    value {
      list {
        s: "loc:@dnn/hiddenlayer_0/kernel/part_0"
      }
    }
  }
  attr {
    key: "_output_shapes"
    value {
      list {
        shape {
          dim {
            size: 7
          }
          dim {
            size: 500
          }
        }
      }
    }
  }
  attr {
    key: "dtype"
    value {
      type: DT_FLOAT
    }
  }
  attr {
    key: "seed"
    value {
      i: 0
    }
  }
  attr {
    key: "seed2"
    value {
      i: 0
    }
  }
}
node {
  name: "dnn/hiddenlayer_0/kernel/part_0/Initializer/random_uniform/sub"
  op: "Sub"
  input: "dnn/hiddenlayer_0/kernel/part_0/Initializer/random_uniform/max"
  input: "dnn/hiddenlayer_0/kernel/part_0/Initializer/random_uniform/min"
  attr {
    key: "T"
    value {
      type: DT_FLOAT
    }
  }
  attr {
    key: "_class"
    value {
      list {
        s: "loc:@dnn/hiddenlayer_0/kernel/part_0"
      }
    }
  }
  attr {
    key: "_output_shapes"
    value {
      list {
        shape {
        }
      }
    }
  }
}
node {
  name: "dnn/hiddenlayer_0/kernel/part_0/Initializer/random_uniform/mul"
  op: "Mul"
  input: "dnn/hiddenlayer_0/kernel/part_0/Initializer/random_uniform/RandomUniform"
  input: "dnn/hiddenlayer_0/kernel/part_0/Initializer/random_uniform/sub"
  attr {
    key: "T"
    value {
      type: DT_FLOAT
    }
  }
  attr {
    key: "_class"
    value {
      list {
        s: "loc:@dnn/hiddenlayer_0/kernel/part_0"
      }
    }
  }
  attr {
    key: "_output_shapes"
    value {
      list {
        shape {
          dim {
            size: 7
          }
          dim {
            size: 500
          }
        }
      }
    }
  }
}
node {
  name: "dnn/hiddenlayer_0/kernel/part_0/Initializer/random_uniform"
  op: "Add"
  input: "dnn/hiddenlayer_0/kernel/part_0/Initializer/random_uniform/mul"
  input: "dnn/hiddenlayer_0/kernel/part_0/Initializer/random_uniform/min"
  attr {
    key: "T"
    value {
      type: DT_FLOAT
    }
  }
  attr {
    key: "_class"
    value {
      list {
        s: "loc:@dnn/hiddenlayer_0/kernel/part_0"
      }
    }
  }
  attr {
    key: "_output_shapes"
    value {
      list {
        shape {
          dim {
            size: 7
          }
          dim {
            size: 500
          }
        }
      }
    }
  }
}
node {
  name: "dnn/hiddenlayer_0/kernel/part_0"
  op: "VarHandleOp"
  attr {
    key: "_class"
    value {
      list {
        s: "loc:@dnn/hiddenlayer_0/kernel/part_0"
      }
    }
  }
  attr {
    key: "_output_shapes"
    value {
      list {
        shape {
        }
      }
    }
  }
  attr {
    key: "container"
    value {
      s: ""
    }
  }
  attr {
    key: "dtype"
    value {
      type: DT_FLOAT
    }
  }
  attr {
    key: "shape"
    value {
      shape {
        dim {
          size: 7
        }
        dim {
          size: 500
        }
      }
    }
  }
  attr {
    key: "shared_name"
    value {
      s: "dnn/hiddenlayer_0/kernel/part_0"
    }
  }
}
node {
  name: "dnn/hiddenlayer_0/kernel/part_0/IsInitialized/VarIsInitializedOp"
  op: "VarIsInitializedOp"
  input: "dnn/hiddenlayer_0/kernel/part_0"
  attr {
    key: "_output_shapes"
    value {
      list {
        shape {
        }
      }
    }
  }
}
node {
  name: "dnn/hiddenlayer_0/kernel/part_0/Assign"
  op: "AssignVariableOp"
  input: "dnn/hiddenlayer_0/kernel/part_0"
  input: "dnn/hiddenlayer_0/kernel/part_0/Initializer/random_uniform"
  attr {
    key: "_class"
    value {
      list {
        s: "loc:@dnn/hiddenlayer_0/kernel/part_0"
      }
    }
  }
  attr {
    key: "dtype"
    value {
      type: DT_FLOAT
    }
  }
}
node {
  name: "dnn/hiddenlayer_0/kernel/part_0/Read/ReadVariableOp"
  op: "ReadVariableOp"
  input: "dnn/hiddenlayer_0/kernel/part_0"
  attr {
    key: "_class"
    value {
      list {
        s: "loc:@dnn/hiddenlayer_0/kernel/part_0"
      }
    }
  }
  attr {
    key: "_output_shapes"
    value {
      list {
        shape {
          dim {
            size: 7
          }
          dim {
            size: 500
          }
        }
      }
    }
  }
  attr {
    key: "dtype"
    value {
      type: DT_FLOAT
    }
  }
}
node {
  name: "dnn/hiddenlayer_0/bias/part_0/Initializer/zeros"
  op: "Const"
  attr {
    key: "_class"
    value {
      list {
        s: "loc:@dnn/hiddenlayer_0/bias/part_0"
      }
    }
  }
  attr {
    key: "_output_shapes"
    value {
      list {
        shape {
          dim {
            size: 500
          }
        }
      }
    }
  }
  attr {
    key: "dtype"
    value {
      type: DT_FLOAT
    }
  }
  attr {
    key: "value"
    value {
      tensor {
        dtype: DT_FLOAT
        tensor_shape {
          dim {
            size: 500
          }
        }
        float_val: 0.0
      }
    }
  }
}
node {
  name: "dnn/hiddenlayer_0/bias/part_0"
  op: "VarHandleOp"
  attr {
    key: "_class"
    value {
      list {
        s: "loc:@dnn/hiddenlayer_0/bias/part_0"
      }
    }
  }
  attr {
    key: "_output_shapes"
    value {
      list {
        shape {
        }
      }
    }
  }
  attr {
    key: "container"
    value {
      s: ""
    }
  }
  attr {
    key: "dtype"
    value {
      type: DT_FLOAT
    }
  }
  attr {
    key: "shape"
    value {
      shape {
        dim {
          size: 500
        }
      }
    }
  }
  attr {
    key: "shared_name"
    value {
      s: "dnn/hiddenlayer_0/bias/part_0"
    }
  }
}
node {
  name: "dnn/hiddenlayer_0/bias/part_0/IsInitialized/VarIsInitializedOp"
  op: "VarIsInitializedOp"
  input: "dnn/hiddenlayer_0/bias/part_0"
  attr {
    key: "_output_shapes"
    value {
      list {
        shape {
        }
      }
    }
  }
}
node {
  name: "dnn/hiddenlayer_0/bias/part_0/Assign"
  op: "AssignVariableOp"
  input: "dnn/hiddenlayer_0/bias/part_0"
  input: "dnn/hiddenlayer_0/bias/part_0/Initializer/zeros"
  attr {
    key: "_class"
    value {
      list {
        s: "loc:@dnn/hiddenlayer_0/bias/part_0"
      }
    }
  }
  attr {
    key: "dtype"
    value {
      type: DT_FLOAT
    }
  }
}
node {
  name: "dnn/hiddenlayer_0/bias/part_0/Read/ReadVariableOp"
  op: "ReadVariableOp"
  input: "dnn/hiddenlayer_0/bias/part_0"
  attr {
    key: "_class"
    value {
      list {
        s: "loc:@dnn/hiddenlayer_0/bias/part_0"
      }
    }
  }
  attr {
    key: "_output_shapes"
    value {
      list {
        shape {
          dim {
            size: 500
          }
        }
      }
    }
  }
  attr {
    key: "dtype"
    value {
      type: DT_FLOAT
    }
  }
}
node {
  name: "dnn/hiddenlayer_0/kernel/ReadVariableOp"
  op: "ReadVariableOp"
  input: "dnn/hiddenlayer_0/kernel/part_0"
  attr {
    key: "_output_shapes"
    value {
      list {
        shape {
          dim {
            size: 7
          }
          dim {
            size: 500
          }
        }
      }
    }
  }
  attr {
    key: "dtype"
    value {
      type: DT_FLOAT
    }
  }
}
node {
  name: "dnn/hiddenlayer_0/kernel"
  op: "Identity"
  input: "dnn/hiddenlayer_0/kernel/ReadVariableOp"
  attr {
    key: "T"
    value {
      type: DT_FLOAT
    }
  }
  attr {
    key: "_output_shapes"
    value {
      list {
        shape {
          dim {
            size: 7
          }
          dim {
            size: 500
          }
        }
      }
    }
  }
}
node {
  name: "dnn/hiddenlayer_0/MatMul"
  op: "MatMul"
  input: "dnn/input_from_feature_columns/input_layer/concat"
  input: "dnn/hiddenlayer_0/kernel"
  attr {
    key: "T"
    value {
      type: DT_FLOAT
    }
  }
  attr {
    key: "_output_shapes"
    value {
      list {
        shape {
          dim {
            size: -1
          }
          dim {
            size: 500
          }
        }
      }
    }
  }
  attr {
    key: "transpose_a"
    value {
      b: false
    }
  }
  attr {
    key: "transpose_b"
    value {
      b: false
    }
  }
}
node {
  name: "dnn/hiddenlayer_0/bias/ReadVariableOp"
  op: "ReadVariableOp"
  input: "dnn/hiddenlayer_0/bias/part_0"
  attr {
    key: "_output_shapes"
    value {
      list {
        shape {
          dim {
            size: 500
          }
        }
      }
    }
  }
  attr {
    key: "dtype"
    value {
      type: DT_FLOAT
    }
  }
}
node {
  name: "dnn/hiddenlayer_0/bias"
  op: "Identity"
  input: "dnn/hiddenlayer_0/bias/ReadVariableOp"
  attr {
    key: "T"
    value {
      type: DT_FLOAT
    }
  }
  attr {
    key: "_output_shapes"
    value {
      list {
        shape {
          dim {
            size: 500
          }
        }
      }
    }
  }
}
node {
  name: "dnn/hiddenlayer_0/BiasAdd"
  op: "BiasAdd"
  input: "dnn/hiddenlayer_0/MatMul"
  input: "dnn/hiddenlayer_0/bias"
  attr {
    key: "T"
    value {
      type: DT_FLOAT
    }
  }
  attr {
    key: "_output_shapes"
    value {
      list {
        shape {
          dim {
            size: -1
          }
          dim {
            size: 500
          }
        }
      }
    }
  }
  attr {
    key: "data_format"
    value {
      s: "NHWC"
    }
  }
}
node {
  name: "dnn/hiddenlayer_0/Relu"
  op: "Relu"
  input: "dnn/hiddenlayer_0/BiasAdd"
  attr {
    key: "T"
    value {
      type: DT_FLOAT
    }
  }
  attr {
    key: "_output_shapes"
    value {
      list {
        shape {
          dim {
            size: -1
          }
          dim {
            size: 500
          }
        }
      }
    }
  }
}
node {
  name: "dnn/dropout/dropout/rate"
  op: "Const"
  attr {
    key: "_output_shapes"
    value {
      list {
        shape {
        }
      }
    }
  }
  attr {
    key: "dtype"
    value {
      type: DT_FLOAT
    }
  }
  attr {
    key: "value"
    value {
      tensor {
        dtype: DT_FLOAT
        tensor_shape {
        }
        float_val: 0.20000000298023224
      }
    }
  }
}
node {
  name: "dnn/dropout/dropout/Shape"
  op: "Shape"
  input: "dnn/hiddenlayer_0/Relu"
  attr {
    key: "T"
    value {
      type: DT_FLOAT
    }
  }
  attr {
    key: "_output_shapes"
    value {
      list {
        shape {
          dim {
            size: 2
          }
        }
      }
    }
  }
  attr {
    key: "out_type"
    value {
      type: DT_INT32
    }
  }
}
node {
  name: "dnn/dropout/dropout/sub/x"
  op: "Const"
  attr {
    key: "_output_shapes"
    value {
      list {
        shape {
        }
      }
    }
  }
  attr {
    key: "dtype"
    value {
      type: DT_FLOAT
    }
  }
  attr {
    key: "value"
    value {
      tensor {
        dtype: DT_FLOAT
        tensor_shape {
        }
        float_val: 1.0
      }
    }
  }
}
node {
  name: "dnn/dropout/dropout/sub"
  op: "Sub"
  input: "dnn/dropout/dropout/sub/x"
  input: "dnn/dropout/dropout/rate"
  attr {
    key: "T"
    value {
      type: DT_FLOAT
    }
  }
  attr {
    key: "_output_shapes"
    value {
      list {
        shape {
        }
      }
    }
  }
}
node {
  name: "dnn/dropout/dropout/random_uniform/min"
  op: "Const"
  attr {
    key: "_output_shapes"
    value {
      list {
        shape {
        }
      }
    }
  }
  attr {
    key: "dtype"
    value {
      type: DT_FLOAT
    }
  }
  attr {
    key: "value"
    value {
      tensor {
        dtype: DT_FLOAT
        tensor_shape {
        }
        float_val: 0.0
      }
    }
  }
}
node {
  name: "dnn/dropout/dropout/random_uniform/max"
  op: "Const"
  attr {
    key: "_output_shapes"
    value {
      list {
        shape {
        }
      }
    }
  }
  attr {
    key: "dtype"
    value {
      type: DT_FLOAT
    }
  }
  attr {
    key: "value"
    value {
      tensor {
        dtype: DT_FLOAT
        tensor_shape {
        }
        float_val: 1.0
      }
    }
  }
}
node {
  name: "dnn/dropout/dropout/random_uniform/RandomUniform"
  op: "RandomUniform"
  input: "dnn/dropout/dropout/Shape"
  attr {
    key: "T"
    value {
      type: DT_INT32
    }
  }
  attr {
    key: "_output_shapes"
    value {
      list {
        shape {
          dim {
            size: -1
          }
          dim {
            size: 500
          }
        }
      }
    }
  }
  attr {
    key: "dtype"
    value {
      type: DT_FLOAT
    }
  }
  attr {
    key: "seed"
    value {
      i: 0
    }
  }
  attr {
    key: "seed2"
    value {
      i: 0
    }
  }
}
node {
  name: "dnn/dropout/dropout/random_uniform/sub"
  op: "Sub"
  input: "dnn/dropout/dropout/random_uniform/max"
  input: "dnn/dropout/dropout/random_uniform/min"
  attr {
    key: "T"
    value {
      type: DT_FLOAT
    }
  }
  attr {
    key: "_output_shapes"
    value {
      list {
        shape {
        }
      }
    }
  }
}
node {
  name: "dnn/dropout/dropout/random_uniform/mul"
  op: "Mul"
  input: "dnn/dropout/dropout/random_uniform/RandomUniform"
  input: "dnn/dropout/dropout/random_uniform/sub"
  attr {
    key: "T"
    value {
      type: DT_FLOAT
    }
  }
  attr {
    key: "_output_shapes"
    value {
      list {
        shape {
          dim {
            size: -1
          }
          dim {
            size: 500
          }
        }
      }
    }
  }
}
node {
  name: "dnn/dropout/dropout/random_uniform"
  op: "Add"
  input: "dnn/dropout/dropout/random_uniform/mul"
  input: "dnn/dropout/dropout/random_uniform/min"
  attr {
    key: "T"
    value {
      type: DT_FLOAT
    }
  }
  attr {
    key: "_output_shapes"
    value {
      list {
        shape {
          dim {
            size: -1
          }
          dim {
            size: 500
          }
        }
      }
    }
  }
}
node {
  name: "dnn/dropout/dropout/add"
  op: "Add"
  input: "dnn/dropout/dropout/sub"
  input: "dnn/dropout/dropout/random_uniform"
  attr {
    key: "T"
    value {
      type: DT_FLOAT
    }
  }
  attr {
    key: "_output_shapes"
    value {
      list {
        shape {
          dim {
            size: -1
          }
          dim {
            size: 500
          }
        }
      }
    }
  }
}
node {
  name: "dnn/dropout/dropout/Floor"
  op: "Floor"
  input: "dnn/dropout/dropout/add"
  attr {
    key: "T"
    value {
      type: DT_FLOAT
    }
  }
  attr {
    key: "_output_shapes"
    value {
      list {
        shape {
          dim {
            size: -1
          }
          dim {
            size: 500
          }
        }
      }
    }
  }
}
node {
  name: "dnn/dropout/dropout/truediv"
  op: "RealDiv"
  input: "dnn/hiddenlayer_0/Relu"
  input: "dnn/dropout/dropout/sub"
  attr {
    key: "T"
    value {
      type: DT_FLOAT
    }
  }
  attr {
    key: "_output_shapes"
    value {
      list {
        shape {
          dim {
            size: -1
          }
          dim {
            size: 500
          }
        }
      }
    }
  }
}
node {
  name: "dnn/dropout/dropout/mul"
  op: "Mul"
  input: "dnn/dropout/dropout/truediv"
  input: "dnn/dropout/dropout/Floor"
  attr {
    key: "T"
    value {
      type: DT_FLOAT
    }
  }
  attr {
    key: "_output_shapes"
    value {
      list {
        shape {
          dim {
            size: -1
          }
          dim {
            size: 500
          }
        }
      }
    }
  }
}
node {
  name: "dnn/zero_fraction/Size"
  op: "Size"
  input: "dnn/dropout/dropout/mul"
  attr {
    key: "T"
    value {
      type: DT_FLOAT
    }
  }
  attr {
    key: "_output_shapes"
    value {
      list {
        shape {
        }
      }
    }
  }
  attr {
    key: "out_type"
    value {
      type: DT_INT64
    }
  }
}
node {
  name: "dnn/zero_fraction/LessEqual/y"
  op: "Const"
  attr {
    key: "_output_shapes"
    value {
      list {
        shape {
        }
      }
    }
  }
  attr {
    key: "dtype"
    value {
      type: DT_INT64
    }
  }
  attr {
    key: "value"
    value {
      tensor {
        dtype: DT_INT64
        tensor_shape {
        }
        int64_val: 2147483647
      }
    }
  }
}
node {
  name: "dnn/zero_fraction/LessEqual"
  op: "LessEqual"
  input: "dnn/zero_fraction/Size"
  input: "dnn/zero_fraction/LessEqual/y"
  attr {
    key: "T"
    value {
      type: DT_INT64
    }
  }
  attr {
    key: "_output_shapes"
    value {
      list {
        shape {
        }
      }
    }
  }
}
node {
  name: "dnn/zero_fraction/cond/Switch"
  op: "Switch"
  input: "dnn/zero_fraction/LessEqual"
  input: "dnn/zero_fraction/LessEqual"
  attr {
    key: "T"
    value {
      type: DT_BOOL
    }
  }
  attr {
    key: "_output_shapes"
    value {
      list {
        shape {
        }
        shape {
        }
      }
    }
  }
}
node {
  name: "dnn/zero_fraction/cond/switch_t"
  op: "Identity"
  input: "dnn/zero_fraction/cond/Switch:1"
  attr {
    key: "T"
    value {
      type: DT_BOOL
    }
  }
  attr {
    key: "_output_shapes"
    value {
      list {
        shape {
        }
      }
    }
  }
}
node {
  name: "dnn/zero_fraction/cond/switch_f"
  op: "Identity"
  input: "dnn/zero_fraction/cond/Switch"
  attr {
    key: "T"
    value {
      type: DT_BOOL
    }
  }
  attr {
    key: "_output_shapes"
    value {
      list {
        shape {
        }
      }
    }
  }
}
node {
  name: "dnn/zero_fraction/cond/pred_id"
  op: "Identity"
  input: "dnn/zero_fraction/LessEqual"
  attr {
    key: "T"
    value {
      type: DT_BOOL
    }
  }
  attr {
    key: "_output_shapes"
    value {
      list {
        shape {
        }
      }
    }
  }
}
node {
  name: "dnn/zero_fraction/cond/count_nonzero/zeros"
  op: "Const"
  input: "^dnn/zero_fraction/cond/switch_t"
  attr {
    key: "_output_shapes"
    value {
      list {
        shape {
        }
      }
    }
  }
  attr {
    key: "dtype"
    value {
      type: DT_FLOAT
    }
  }
  attr {
    key: "value"
    value {
      tensor {
        dtype: DT_FLOAT
        tensor_shape {
        }
        float_val: 0.0
      }
    }
  }
}
node {
  name: "dnn/zero_fraction/cond/count_nonzero/NotEqual"
  op: "NotEqual"
  input: "dnn/zero_fraction/cond/count_nonzero/NotEqual/Switch:1"
  input: "dnn/zero_fraction/cond/count_nonzero/zeros"
  attr {
    key: "T"
    value {
      type: DT_FLOAT
    }
  }
  attr {
    key: "_output_shapes"
    value {
      list {
        shape {
          dim {
            size: -1
          }
          dim {
            size: 500
          }
        }
      }
    }
  }
}
node {
  name: "dnn/zero_fraction/cond/count_nonzero/NotEqual/Switch"
  op: "Switch"
  input: "dnn/dropout/dropout/mul"
  input: "dnn/zero_fraction/cond/pred_id"
  attr {
    key: "T"
    value {
      type: DT_FLOAT
    }
  }
  attr {
    key: "_class"
    value {
      list {
        s: "loc:@dnn/dropout/dropout/mul"
      }
    }
  }
  attr {
    key: "_output_shapes"
    value {
      list {
        shape {
          dim {
            size: -1
          }
          dim {
            size: 500
          }
        }
        shape {
          dim {
            size: -1
          }
          dim {
            size: 500
          }
        }
      }
    }
  }
}
node {
  name: "dnn/zero_fraction/cond/count_nonzero/Cast"
  op: "Cast"
  input: "dnn/zero_fraction/cond/count_nonzero/NotEqual"
  attr {
    key: "DstT"
    value {
      type: DT_INT32
    }
  }
  attr {
    key: "SrcT"
    value {
      type: DT_BOOL
    }
  }
  attr {
    key: "Truncate"
    value {
      b: false
    }
  }
  attr {
    key: "_output_shapes"
    value {
      list {
        shape {
          dim {
            size: -1
          }
          dim {
            size: 500
          }
        }
      }
    }
  }
}
node {
  name: "dnn/zero_fraction/cond/count_nonzero/Const"
  op: "Const"
  input: "^dnn/zero_fraction/cond/switch_t"
  attr {
    key: "_output_shapes"
    value {
      list {
        shape {
          dim {
            size: 2
          }
        }
      }
    }
  }
  attr {
    key: "dtype"
    value {
      type: DT_INT32
    }
  }
  attr {
    key: "value"
    value {
      tensor {
        dtype: DT_INT32
        tensor_shape {
          dim {
            size: 2
          }
        }
        tensor_content: "\000\000\000\000\001\000\000\000"
      }
    }
  }
}
node {
  name: "dnn/zero_fraction/cond/count_nonzero/nonzero_count"
  op: "Sum"
  input: "dnn/zero_fraction/cond/count_nonzero/Cast"
  input: "dnn/zero_fraction/cond/count_nonzero/Const"
  attr {
    key: "T"
    value {
      type: DT_INT32
    }
  }
  attr {
    key: "Tidx"
    value {
      type: DT_INT32
    }
  }
  attr {
    key: "_output_shapes"
    value {
      list {
        shape {
        }
      }
    }
  }
  attr {
    key: "keep_dims"
    value {
      b: false
    }
  }
}
node {
  name: "dnn/zero_fraction/cond/Cast"
  op: "Cast"
  input: "dnn/zero_fraction/cond/count_nonzero/nonzero_count"
  attr {
    key: "DstT"
    value {
      type: DT_INT64
    }
  }
  attr {
    key: "SrcT"
    value {
      type: DT_INT32
    }
  }
  attr {
    key: "Truncate"
    value {
      b: false
    }
  }
  attr {
    key: "_output_shapes"
    value {
      list {
        shape {
        }
      }
    }
  }
}
node {
  name: "dnn/zero_fraction/cond/count_nonzero_1/zeros"
  op: "Const"
  input: "^dnn/zero_fraction/cond/switch_f"
  attr {
    key: "_output_shapes"
    value {
      list {
        shape {
        }
      }
    }
  }
  attr {
    key: "dtype"
    value {
      type: DT_FLOAT
    }
  }
  attr {
    key: "value"
    value {
      tensor {
        dtype: DT_FLOAT
        tensor_shape {
        }
        float_val: 0.0
      }
    }
  }
}
node {
  name: "dnn/zero_fraction/cond/count_nonzero_1/NotEqual"
  op: "NotEqual"
  input: "dnn/zero_fraction/cond/count_nonzero_1/NotEqual/Switch"
  input: "dnn/zero_fraction/cond/count_nonzero_1/zeros"
  attr {
    key: "T"
    value {
      type: DT_FLOAT
    }
  }
  attr {
    key: "_output_shapes"
    value {
      list {
        shape {
          dim {
            size: -1
          }
          dim {
            size: 500
          }
        }
      }
    }
  }
}
node {
  name: "dnn/zero_fraction/cond/count_nonzero_1/NotEqual/Switch"
  op: "Switch"
  input: "dnn/dropout/dropout/mul"
  input: "dnn/zero_fraction/cond/pred_id"
  attr {
    key: "T"
    value {
      type: DT_FLOAT
    }
  }
  attr {
    key: "_class"
    value {
      list {
        s: "loc:@dnn/dropout/dropout/mul"
      }
    }
  }
  attr {
    key: "_output_shapes"
    value {
      list {
        shape {
          dim {
            size: -1
          }
          dim {
            size: 500
          }
        }
        shape {
          dim {
            size: -1
          }
          dim {
            size: 500
          }
        }
      }
    }
  }
}
node {
  name: "dnn/zero_fraction/cond/count_nonzero_1/Cast"
  op: "Cast"
  input: "dnn/zero_fraction/cond/count_nonzero_1/NotEqual"
  attr {
    key: "DstT"
    value {
      type: DT_INT64
    }
  }
  attr {
    key: "SrcT"
    value {
      type: DT_BOOL
    }
  }
  attr {
    key: "Truncate"
    value {
      b: false
    }
  }
  attr {
    key: "_output_shapes"
    value {
      list {
        shape {
          dim {
            size: -1
          }
          dim {
            size: 500
          }
        }
      }
    }
  }
}
node {
  name: "dnn/zero_fraction/cond/count_nonzero_1/Const"
  op: "Const"
  input: "^dnn/zero_fraction/cond/switch_f"
  attr {
    key: "_output_shapes"
    value {
      list {
        shape {
          dim {
            size: 2
          }
        }
      }
    }
  }
  attr {
    key: "dtype"
    value {
      type: DT_INT32
    }
  }
  attr {
    key: "value"
    value {
      tensor {
        dtype: DT_INT32
        tensor_shape {
          dim {
            size: 2
          }
        }
        tensor_content: "\000\000\000\000\001\000\000\000"
      }
    }
  }
}
node {
  name: "dnn/zero_fraction/cond/count_nonzero_1/nonzero_count"
  op: "Sum"
  input: "dnn/zero_fraction/cond/count_nonzero_1/Cast"
  input: "dnn/zero_fraction/cond/count_nonzero_1/Const"
  attr {
    key: "T"
    value {
      type: DT_INT64
    }
  }
  attr {
    key: "Tidx"
    value {
      type: DT_INT32
    }
  }
  attr {
    key: "_output_shapes"
    value {
      list {
        shape {
        }
      }
    }
  }
  attr {
    key: "keep_dims"
    value {
      b: false
    }
  }
}
node {
  name: "dnn/zero_fraction/cond/Merge"
  op: "Merge"
  input: "dnn/zero_fraction/cond/count_nonzero_1/nonzero_count"
  input: "dnn/zero_fraction/cond/Cast"
  attr {
    key: "N"
    value {
      i: 2
    }
  }
  attr {
    key: "T"
    value {
      type: DT_INT64
    }
  }
  attr {
    key: "_output_shapes"
    value {
      list {
        shape {
        }
        shape {
        }
      }
    }
  }
}
node {
  name: "dnn/zero_fraction/counts_to_fraction/sub"
  op: "Sub"
  input: "dnn/zero_fraction/Size"
  input: "dnn/zero_fraction/cond/Merge"
  attr {
    key: "T"
    value {
      type: DT_INT64
    }
  }
  attr {
    key: "_output_shapes"
    value {
      list {
        shape {
…
      list {
        shape {
          dim {
            size: 400
          }
          dim {
            size: 300
          }
        }
      }
    }
  }
  attr {
    key: "dtype"
    value {
      type: DT_FLOAT
    }
  }
}
node {
  name: "save/Identity_72"
  op: "Identity"
  input: "save/Read_36/ReadVariableOp"
  device: "/device:CPU:0"
  attr {
    key: "T"
    value {
      type: DT_FLOAT
    }
  }
  attr {
    key: "_output_shapes"
    value {
      list {
        shape {
          dim {
            size: 400
          }
          dim {
            size: 300
          }
        }
      }
    }
  }
}
node {
  name: "save/Identity_73"
  op: "Identity"
  input: "save/Identity_72"
  device: "/device:CPU:0"
  attr {
    key: "T"
    value {
      type: DT_FLOAT
    }
  }
  attr {
    key: "_output_shapes"
    value {
      list {
        shape {
          dim {
            size: 400
          }
          dim {
            size: 300
          }
        }
      }
    }
  }
}
node {
  name: "save/Read_37/ReadVariableOp"
  op: "ReadVariableOp"
  input: "dnn/logits/bias/part_0"
  device: "/device:CPU:0"
  attr {
    key: "_output_shapes"
    value {
      list {
        shape {
          dim {
            size: 9
          }
        }
      }
    }
  }
  attr {
    key: "dtype"
    value {
      type: DT_FLOAT
    }
  }
}
node {
  name: "save/Identity_74"
  op: "Identity"
  input: "save/Read_37/ReadVariableOp"
  device: "/device:CPU:0"
  attr {
    key: "T"
    value {
      type: DT_FLOAT
    }
  }
  attr {
    key: "_output_shapes"
    value {
      list {
        shape {
          dim {
            size: 9
          }
        }
      }
    }
  }
}
node {
  name: "save/Identity_75"
  op: "Identity"
  input: "save/Identity_74"
  device: "/device:CPU:0"
  attr {
    key: "T"
    value {
      type: DT_FLOAT
    }
  }
  attr {
    key: "_output_shapes"
    value {
      list {
        shape {
          dim {
            size: 9
          }
        }
      }
    }
  }
}
node {
  name: "save/Read_38/ReadVariableOp"
  op: "ReadVariableOp"
  input: "dnn/logits/bias/part_0/Adagrad"
  device: "/device:CPU:0"
  attr {
    key: "_output_shapes"
    value {
      list {
        shape {
          dim {
            size: 9
          }
        }
      }
    }
  }
  attr {
    key: "dtype"
    value {
      type: DT_FLOAT
    }
  }
}
node {
  name: "save/Identity_76"
  op: "Identity"
  input: "save/Read_38/ReadVariableOp"
  device: "/device:CPU:0"
  attr {
    key: "T"
    value {
      type: DT_FLOAT
    }
  }
  attr {
    key: "_output_shapes"
    value {
      list {
        shape {
          dim {
            size: 9
          }
        }
      }
    }
  }
}
node {
  name: "save/Identity_77"
  op: "Identity"
  input: "save/Identity_76"
  device: "/device:CPU:0"
  attr {
    key: "T"
    value {
      type: DT_FLOAT
    }
  }
  attr {
    key: "_output_shapes"
    value {
      list {
        shape {
          dim {
            size: 9
          }
        }
      }
    }
  }
}
node {
  name: "save/Read_39/ReadVariableOp"
  op: "ReadVariableOp"
  input: "dnn/logits/kernel/part_0"
  device: "/device:CPU:0"
  attr {
    key: "_output_shapes"
    value {
      list {
        shape {
          dim {
            size: 300
          }
          dim {
            size: 9
          }
        }
      }
    }
  }
  attr {
    key: "dtype"
    value {
      type: DT_FLOAT
    }
  }
}
node {
  name: "save/Identity_78"
  op: "Identity"
  input: "save/Read_39/ReadVariableOp"
  device: "/device:CPU:0"
  attr {
    key: "T"
    value {
      type: DT_FLOAT
    }
  }
  attr {
    key: "_output_shapes"
    value {
      list {
        shape {
          dim {
            size: 300
          }
          dim {
            size: 9
          }
        }
      }
    }
  }
}
node {
  name: "save/Identity_79"
  op: "Identity"
  input: "save/Identity_78"
  device: "/device:CPU:0"
  attr {
    key: "T"
    value {
      type: DT_FLOAT
    }
  }
  attr {
    key: "_output_shapes"
    value {
      list {
        shape {
          dim {
            size: 300
          }
          dim {
            size: 9
          }
        }
      }
    }
  }
}
node {
  name: "save/Read_40/ReadVariableOp"
  op: "ReadVariableOp"
  input: "dnn/logits/kernel/part_0/Adagrad"
  device: "/device:CPU:0"
  attr {
    key: "_output_shapes"
    value {
      list {
        shape {
          dim {
            size: 300
          }
          dim {
            size: 9
          }
        }
      }
    }
  }
  attr {
    key: "dtype"
    value {
      type: DT_FLOAT
    }
  }
}
node {
  name: "save/Identity_80"
  op: "Identity"
  input: "save/Read_40/ReadVariableOp"
  device: "/device:CPU:0"
  attr {
    key: "T"
    value {
      type: DT_FLOAT
    }
  }
  attr {
    key: "_output_shapes"
    value {
      list {
        shape {
          dim {
            size: 300
          }
          dim {
            size: 9
          }
        }
      }
    }
  }
}
node {
  name: "save/Identity_81"
  op: "Identity"
  input: "save/Identity_80"
  device: "/device:CPU:0"
  attr {
    key: "T"
    value {
      type: DT_FLOAT
    }
  }
  attr {
    key: "_output_shapes"
    value {
      list {
        shape {
          dim {
            size: 300
          }
          dim {
            size: 9
          }
        }
      }
    }
  }
}
node {
  name: "save/Read_41/ReadVariableOp"
  op: "ReadVariableOp"
  input: "linear/linear_model/NM_M/weights/part_0"
  device: "/device:CPU:0"
  attr {
    key: "_output_shapes"
    value {
      list {
        shape {
          dim {
            size: 17336
          }
          dim {
            size: 9
          }
        }
      }
    }
  }
  attr {
    key: "dtype"
    value {
      type: DT_FLOAT
    }
  }
}
node {
  name: "save/Identity_82"
  op: "Identity"
  input: "save/Read_41/ReadVariableOp"
  device: "/device:CPU:0"
  attr {
    key: "T"
    value {
      type: DT_FLOAT
    }
  }
  attr {
    key: "_output_shapes"
    value {
      list {
        shape {
          dim {
            size: 17336
          }
          dim {
            size: 9
          }
        }
      }
    }
  }
}
node {
  name: "save/Identity_83"
  op: "Identity"
  input: "save/Identity_82"
  device: "/device:CPU:0"
  attr {
    key: "T"
    value {
      type: DT_FLOAT
    }
  }
  attr {
    key: "_output_shapes"
    value {
      list {
        shape {
          dim {
            size: 17336
          }
          dim {
            size: 9
          }
        }
      }
    }
  }
}
node {
  name: "save/Read_42/ReadVariableOp"
  op: "ReadVariableOp"
  input: "linear/linear_model/NM_M/weights/part_0/Ftrl"
  device: "/device:CPU:0"
  attr {
    key: "_output_shapes"
    value {
      list {
        shape {
          dim {
            size: 17336
          }
          dim {
            size: 9
          }
        }
      }
    }
  }
  attr {
    key: "dtype"
    value {
      type: DT_FLOAT
    }
  }
}
node {
  name: "save/Identity_84"
  op: "Identity"
  input: "save/Read_42/ReadVariableOp"
  device: "/device:CPU:0"
  attr {
    key: "T"
    value {
      type: DT_FLOAT
    }
  }
  attr {
    key: "_output_shapes"
    value {
      list {
        shape {
          dim {
            size: 17336
          }
          dim {
            size: 9
          }
        }
      }
    }
  }
}
node {
  name: "save/Identity_85"
  op: "Identity"
  input: "save/Identity_84"
  device: "/device:CPU:0"
  attr {
    key: "T"
    value {
      type: DT_FLOAT
    }
  }
  attr {
    key: "_output_shapes"
    value {
      list {
        shape {
          dim {
            size: 17336
          }
          dim {
            size: 9
          }
        }
      }
    }
  }
}
node {
  name: "save/Read_43/ReadVariableOp"
  op: "ReadVariableOp"
  input: "linear/linear_model/NM_M/weights/part_0/Ftrl_1"
  device: "/device:CPU:0"
  attr {
    key: "_output_shapes"
    value {
      list {
        shape {
          dim {
            size: 17336
          }
          dim {
            size: 9
          }
        }
      }
    }
  }
  attr {
    key: "dtype"
    value {
      type: DT_FLOAT
    }
  }
}
node {
  name: "save/Identity_86"
  op: "Identity"
  input: "save/Read_43/ReadVariableOp"
  device: "/device:CPU:0"
  attr {
    key: "T"
    value {
      type: DT_FLOAT
    }
  }
  attr {
    key: "_output_shapes"
    value {
      list {
        shape {
          dim {
            size: 17336
          }
          dim {
            size: 9
          }
        }
      }
    }
  }
}
node {
  name: "save/Identity_87"
  op: "Identity"
  input: "save/Identity_86"
  device: "/device:CPU:0"
  attr {
    key: "T"
    value {
      type: DT_FLOAT
    }
  }
  attr {
    key: "_output_shapes"
    value {
      list {
        shape {
          dim {
            size: 17336
          }
          dim {
            size: 9
          }
        }
      }
    }
  }
}
node {
  name: "save/Read_44/ReadVariableOp"
  op: "ReadVariableOp"
  input: "linear/linear_model/Well_Name_embedding/weights/part_0"
  device: "/device:CPU:0"
  attr {
    key: "_output_shapes"
    value {
      list {
        shape {
          dim {
            size: 79
          }
          dim {
            size: 9
          }
        }
      }
    }
  }
  attr {
    key: "dtype"
    value {
      type: DT_FLOAT
    }
  }
}
node {
  name: "save/Identity_88"
  op: "Identity"
  input: "save/Read_44/ReadVariableOp"
  device: "/device:CPU:0"
  attr {
    key: "T"
    value {
      type: DT_FLOAT
    }
  }
  attr {
    key: "_output_shapes"
    value {
      list {
        shape {
          dim {
            size: 79
          }
          dim {
            size: 9
          }
        }
      }
    }
  }
}
node {
  name: "save/Identity_89"
  op: "Identity"
  input: "save/Identity_88"
  device: "/device:CPU:0"
  attr {
    key: "T"
    value {
      type: DT_FLOAT
    }
  }
  attr {
    key: "_output_shapes"
    value {
      list {
        shape {
          dim {
            size: 79
          }
          dim {
            size: 9
          }
        }
      }
    }
  }
}
node {
  name: "save/Read_45/ReadVariableOp"
  op: "ReadVariableOp"
  input: "linear/linear_model/Well_Name_embedding/weights/part_0/Ftrl"
  device: "/device:CPU:0"
  attr {
    key: "_output_shapes"
    value {
      list {
        shape {
          dim {
            size: 79
          }
          dim {
            size: 9
          }
        }
      }
    }
  }
  attr {
    key: "dtype"
    value {
      type: DT_FLOAT
    }
  }
}
node {
  name: "save/Identity_90"
  op: "Identity"
  input: "save/Read_45/ReadVariableOp"
  device: "/device:CPU:0"
  attr {
    key: "T"
    value {
      type: DT_FLOAT
    }
  }
  attr {
    key: "_output_shapes"
    value {
      list {
        shape {
          dim {
            size: 79
          }
          dim {
            size: 9
          }
        }
      }
    }
  }
}
node {
  name: "save/Identity_91"
  op: "Identity"
  input: "save/Identity_90"
  device: "/device:CPU:0"
  attr {
    key: "T"
    value {
      type: DT_FLOAT
    }
  }
  attr {
    key: "_output_shapes"
    value {
      list {
        shape {
          dim {
            size: 79
          }
          dim {
            size: 9
          }
        }
      }
    }
  }
}
node {
  name: "save/Read_46/ReadVariableOp"
  op: "ReadVariableOp"
  input: "linear/linear_model/Well_Name_embedding/weights/part_0/Ftrl_1"
  device: "/device:CPU:0"
  attr {
    key: "_output_shapes"
    value {
      list {
        shape {
          dim {
            size: 79
          }
          dim {
            size: 9
          }
        }
      }
    }
  }
  attr {
    key: "dtype"
    value {
      type: DT_FLOAT
    }
  }
}
node {
  name: "save/Identity_92"
  op: "Identity"
  input: "save/Read_46/ReadVariableOp"
  device: "/device:CPU:0"
  attr {
    key: "T"
    value {
      type: DT_FLOAT
    }
  }
  attr {
    key: "_output_shapes"
    value {
      list {
        shape {
          dim {
            size: 79
          }
          dim {
            size: 9
          }
        }
      }
    }
  }
}
node {
  name: "save/Identity_93"
  op: "Identity"
  input: "save/Identity_92"
  device: "/device:CPU:0"
  attr {
    key: "T"
    value {
      type: DT_FLOAT
    }
  }
  attr {
    key: "_output_shapes"
    value {
      list {
        shape {
          dim {
            size: 79
          }
          dim {
            size: 9
          }
        }
      }
    }
  }
}
node {
  name: "save/Read_47/ReadVariableOp"
  op: "ReadVariableOp"
  input: "linear/linear_model/bias_weights/part_0"
  device: "/device:CPU:0"
  attr {
    key: "_output_shapes"
    value {
      list {
        shape {
          dim {
            size: 9
          }
        }
      }
    }
  }
  attr {
    key: "dtype"
    value {
      type: DT_FLOAT
    }
  }
}
node {
  name: "save/Identity_94"
  op: "Identity"
  input: "save/Read_47/ReadVariableOp"
  device: "/device:CPU:0"
  attr {
    key: "T"
    value {
      type: DT_FLOAT
    }
  }
  attr {
    key: "_output_shapes"
    value {
      list {
        shape {
          dim {
            size: 9
          }
        }
      }
    }
  }
}
node {
  name: "save/Identity_95"
  op: "Identity"
  input: "save/Identity_94"
  device: "/device:CPU:0"
  attr {
    key: "T"
    value {
      type: DT_FLOAT
    }
  }
  attr {
    key: "_output_shapes"
    value {
      list {
        shape {
          dim {
            size: 9
          }
        }
      }
    }
  }
}
node {
  name: "save/Read_48/ReadVariableOp"
  op: "ReadVariableOp"
  input: "linear/linear_model/bias_weights/part_0/Ftrl"
  device: "/device:CPU:0"
  attr {
    key: "_output_shapes"
    value {
      list {
        shape {
          dim {
            size: 9
          }
        }
      }
    }
  }
  attr {
    key: "dtype"
    value {
      type: DT_FLOAT
    }
  }
}
node {
  name: "save/Identity_96"
  op: "Identity"
  input: "save/Read_48/ReadVariableOp"
  device: "/device:CPU:0"
  attr {
    key: "T"
    value {
      type: DT_FLOAT
    }
  }
  attr {
    key: "_output_shapes"
    value {
      list {
        shape {
          dim {
            size: 9
          }
        }
      }
    }
  }
}
node {
  name: "save/Identity_97"
  op: "Identity"
  input: "save/Identity_96"
  device: "/device:CPU:0"
  attr {
    key: "T"
    value {
      type: DT_FLOAT
    }
  }
  attr {
    key: "_output_shapes"
    value {
      list {
        shape {
          dim {
            size: 9
          }
        }
      }
    }
  }
}
node {
  name: "save/Read_49/ReadVariableOp"
  op: "ReadVariableOp"
  input: "linear/linear_model/bias_weights/part_0/Ftrl_1"
  device: "/device:CPU:0"
  attr {
    key: "_output_shapes"
    value {
      list {
        shape {
          dim {
            size: 9
          }
        }
      }
    }
  }
  attr {
    key: "dtype"
    value {
      type: DT_FLOAT
    }
  }
}
node {
  name: "save/Identity_98"
  op: "Identity"
  input: "save/Read_49/ReadVariableOp"
  device: "/device:CPU:0"
  attr {
    key: "T"
    value {
      type: DT_FLOAT
    }
  }
  attr {
    key: "_output_shapes"
    value {
      list {
        shape {
          dim {
            size: 9
          }
        }
      }
    }
  }
}
node {
  name: "save/Identity_99"
  op: "Identity"
  input: "save/Identity_98"
  device: "/device:CPU:0"
  attr {
    key: "T"
    value {
      type: DT_FLOAT
    }
  }
  attr {
    key: "_output_shapes"
    value {
      list {
        shape {
          dim {
            size: 9
          }
        }
      }
    }
  }
}
node {
  name: "save/SaveV2_1/tensor_names"
  op: "Const"
  device: "/device:CPU:0"
  attr {
    key: "_output_shapes"
    value {
      list {
        shape {
          dim {
            size: 25
          }
        }
      }
    }
  }
  attr {
    key: "dtype"
    value {
      type: DT_STRING
    }
  }
  attr {
    key: "value"
    value {
      tensor {
        dtype: DT_STRING
        tensor_shape {
          dim {
            size: 25
          }
        }
        string_val: "dnn/hiddenlayer_0/bias"
        string_val: "dnn/hiddenlayer_0/bias/Adagrad"
        string_val: "dnn/hiddenlayer_0/kernel"
        string_val: "dnn/hiddenlayer_0/kernel/Adagrad"
        string_val: "dnn/hiddenlayer_1/bias"
        string_val: "dnn/hiddenlayer_1/bias/Adagrad"
        string_val: "dnn/hiddenlayer_1/kernel"
        string_val: "dnn/hiddenlayer_1/kernel/Adagrad"
        string_val: "dnn/hiddenlayer_2/bias"
        string_val: "dnn/hiddenlayer_2/bias/Adagrad"
        string_val: "dnn/hiddenlayer_2/kernel"
        string_val: "dnn/hiddenlayer_2/kernel/Adagrad"
        string_val: "dnn/logits/bias"
        string_val: "dnn/logits/bias/Adagrad"
        string_val: "dnn/logits/kernel"
        string_val: "dnn/logits/kernel/Adagrad"
        string_val: "linear/linear_model/NM_M/weights"
        string_val: "linear/linear_model/NM_M/weights/Ftrl"
        string_val: "linear/linear_model/NM_M/weights/Ftrl_1"
        string_val: "linear/linear_model/Well_Name_embedding/weights"
        string_val: "linear/linear_model/Well_Name_embedding/weights/Ftrl"
        string_val: "linear/linear_model/Well_Name_embedding/weights/Ftrl_1"
        string_val: "linear/linear_model/bias_weights"
        string_val: "linear/linear_model/bias_weights/Ftrl"
        string_val: "linear/linear_model/bias_weights/Ftrl_1"
      }
    }
  }
}
node {
  name: "save/SaveV2_1/shape_and_slices"
  op: "Const"
  device: "/device:CPU:0"
  attr {
    key: "_output_shapes"
    value {
      list {
        shape {
          dim {
            size: 25
          }
        }
      }
    }
  }
  attr {
    key: "dtype"
    value {
      type: DT_STRING
    }
  }
  attr {
    key: "value"
    value {
      tensor {
        dtype: DT_STRING
        tensor_shape {
          dim {
            size: 25
          }
        }
        string_val: "500 0,500"
        string_val: "500 0,500"
        string_val: "7 500 0,7:0,500"
        string_val: "7 500 0,7:0,500"
        string_val: "400 0,400"
        string_val: "400 0,400"
        string_val: "500 400 0,500:0,400"
        string_val: "500 400 0,500:0,400"
        string_val: "300 0,300"
        string_val: "300 0,300"
        string_val: "400 300 0,400:0,300"
        string_val: "400 300 0,400:0,300"
        string_val: "9 0,9"
        string_val: "9 0,9"
        string_val: "300 9 0,300:0,9"
        string_val: "300 9 0,300:0,9"
        string_val: "17336 9 0,17336:0,9"
        string_val: "17336 9 0,17336:0,9"
        string_val: "17336 9 0,17336:0,9"
        string_val: "79 9 0,79:0,9"
        string_val: "79 9 0,79:0,9"
        string_val: "79 9 0,79:0,9"
        string_val: "9 0,9"
        string_val: "9 0,9"
        string_val: "9 0,9"
      }
    }
  }
}
node {
  name: "save/SaveV2_1"
  op: "SaveV2"
  input: "save/ShardedFilename_1"
  input: "save/SaveV2_1/tensor_names"
  input: "save/SaveV2_1/shape_and_slices"
  input: "save/Identity_51"
  input: "save/Identity_53"
  input: "save/Identity_55"
  input: "save/Identity_57"
  input: "save/Identity_59"
  input: "save/Identity_61"
  input: "save/Identity_63"
  input: "save/Identity_65"
  input: "save/Identity_67"
  input: "save/Identity_69"
  input: "save/Identity_71"
  input: "save/Identity_73"
  input: "save/Identity_75"
  input: "save/Identity_77"
  input: "save/Identity_79"
  input: "save/Identity_81"
  input: "save/Identity_83"
  input: "save/Identity_85"
  input: "save/Identity_87"
  input: "save/Identity_89"
  input: "save/Identity_91"
  input: "save/Identity_93"
  input: "save/Identity_95"
  input: "save/Identity_97"
  input: "save/Identity_99"
  device: "/device:CPU:0"
  attr {
    key: "dtypes"
    value {
      list {
        type: DT_FLOAT
        type: DT_FLOAT
        type: DT_FLOAT
        type: DT_FLOAT
        type: DT_FLOAT
        type: DT_FLOAT
        type: DT_FLOAT
        type: DT_FLOAT
        type: DT_FLOAT
        type: DT_FLOAT
        type: DT_FLOAT
        type: DT_FLOAT
        type: DT_FLOAT
        type: DT_FLOAT
        type: DT_FLOAT
        type: DT_FLOAT
        type: DT_FLOAT
        type: DT_FLOAT
        type: DT_FLOAT
        type: DT_FLOAT
        type: DT_FLOAT
        type: DT_FLOAT
        type: DT_FLOAT
        type: DT_FLOAT
        type: DT_FLOAT
      }
    }
  }
}
node {
  name: "save/control_dependency_1"
  op: "Identity"
  input: "save/ShardedFilename_1"
  input: "^save/SaveV2_1"
  device: "/device:CPU:0"
  attr {
    key: "T"
    value {
      type: DT_STRING
    }
  }
  attr {
    key: "_class"
    value {
      list {
        s: "loc:@save/ShardedFilename_1"
      }
    }
  }
  attr {
    key: "_output_shapes"
    value {
      list {
        shape {
        }
      }
    }
  }
}
node {
  name: "save/MergeV2Checkpoints/checkpoint_prefixes"
  op: "Pack"
  input: "save/ShardedFilename"
  input: "save/ShardedFilename_1"
  input: "^save/control_dependency"
  input: "^save/control_dependency_1"
  device: "/device:CPU:0"
  attr {
    key: "N"
    value {
      i: 2
    }
  }
  attr {
    key: "T"
    value {
      type: DT_STRING
    }
  }
  attr {
    key: "_output_shapes"
    value {
      list {
        shape {
          dim {
            size: 2
          }
        }
      }
    }
  }
  attr {
    key: "axis"
    value {
      i: 0
    }
  }
}
node {
  name: "save/MergeV2Checkpoints"
  op: "MergeV2Checkpoints"
  input: "save/MergeV2Checkpoints/checkpoint_prefixes"
  input: "save/Const"
  device: "/device:CPU:0"
  attr {
    key: "delete_old_dirs"
    value {
      b: true
    }
  }
}
node {
  name: "save/Identity_100"
  op: "Identity"
  input: "save/Const"
  input: "^save/MergeV2Checkpoints"
  input: "^save/control_dependency"
  input: "^save/control_dependency_1"
  device: "/device:CPU:0"
  attr {
    key: "T"
    value {
      type: DT_STRING
    }
  }
  attr {
    key: "_output_shapes"
    value {
      list {
        shape {
        }
      }
    }
  }
}
node {
  name: "save/RestoreV2/tensor_names"
  op: "Const"
  device: "/device:CPU:0"
  attr {
    key: "_output_shapes"
    value {
      list {
        shape {
          dim {
            size: 4
          }
        }
      }
    }
  }
  attr {
    key: "dtype"
    value {
      type: DT_STRING
    }
  }
  attr {
    key: "value"
    value {
      tensor {
        dtype: DT_STRING
        tensor_shape {
          dim {
            size: 4
          }
        }
        string_val: "global_step"
        string_val: "linear/linear_model/Well_Name_embedding/embedding_weights"
        string_val: "linear/linear_model/Well_Name_embedding/embedding_weights/Ftrl"
        string_val: "linear/linear_model/Well_Name_embedding/embedding_weights/Ftrl_1"
      }
    }
  }
}
node {
  name: "save/RestoreV2/shape_and_slices"
  op: "Const"
  device: "/device:CPU:0"
  attr {
    key: "_output_shapes"
    value {
      list {
        shape {
          dim {
            size: 4
          }
        }
      }
    }
  }
  attr {
    key: "dtype"
    value {
      type: DT_STRING
    }
  }
  attr {
    key: "value"
    value {
      tensor {
        dtype: DT_STRING
        tensor_shape {
          dim {
            size: 4
          }
        }
        string_val: ""
        string_val: "8 79 0,8:0,79"
        string_val: "8 79 0,8:0,79"
        string_val: "8 79 0,8:0,79"
      }
    }
  }
}
node {
  name: "save/RestoreV2"
  op: "RestoreV2"
  input: "save/Const"
  input: "save/RestoreV2/tensor_names"
  input: "save/RestoreV2/shape_and_slices"
  device: "/device:CPU:0"
  attr {
    key: "_output_shapes"
    value {
      list {
        shape {
          unknown_rank: true
        }
        shape {
          dim {
            size: 8
          }
          dim {
            size: 79
          }
        }
        shape {
          dim {
            size: 8
          }
          dim {
            size: 79
          }
        }
        shape {
          dim {
            size: 8
          }
          dim {
            size: 79
          }
        }
      }
    }
  }
  attr {
    key: "dtypes"
    value {
      list {
        type: DT_INT64
        type: DT_FLOAT
        type: DT_FLOAT
        type: DT_FLOAT
      }
    }
  }
}
node {
  name: "save/Assign"
  op: "Assign"
  input: "global_step"
  input: "save/RestoreV2"
  attr {
    key: "T"
    value {
      type: DT_INT64
    }
  }
  attr {
    key: "_class"
    value {
      list {
        s: "loc:@global_step"
      }
    }
  }
  attr {
    key: "_output_shapes"
    value {
      list {
        shape {
        }
      }
    }
  }
  attr {
    key: "use_locking"
    value {
      b: true
    }
  }
  attr {
    key: "validate_shape"
    value {
      b: true
    }
  }
}
node {
  name: "save/Assign_1"
  op: "Assign"
  input: "linear/linear_model/Well_Name_embedding/embedding_weights/part_0"
  input: "save/RestoreV2:1"
  attr {
    key: "T"
    value {
      type: DT_FLOAT
    }
  }
  attr {
    key: "_class"
    value {
      list {
        s: "loc:@linear/linear_model/Well_Name_embedding/embedding_weights/part_0"
      }
    }
  }
  attr {
    key: "_output_shapes"
    value {
      list {
        shape {
          dim {
            size: 8
          }
          dim {
            size: 79
          }
        }
      }
    }
  }
  attr {
    key: "use_locking"
    value {
      b: true
    }
  }
  attr {
    key: "validate_shape"
    value {
      b: true
    }
  }
}
node {
  name: "save/Assign_2"
  op: "Assign"
  input: "linear/linear_model/Well_Name_embedding/embedding_weights/part_0/Ftrl"
  input: "save/RestoreV2:2"
  attr {
    key: "T"
    value {
      type: DT_FLOAT
    }
  }
  attr {
    key: "_class"
    value {
      list {
        s: "loc:@linear/linear_model/Well_Name_embedding/embedding_weights/part_0"
      }
    }
  }
  attr {
    key: "_output_shapes"
    value {
      list {
        shape {
          dim {
            size: 8
          }
          dim {
            size: 79
          }
        }
      }
    }
  }
  attr {
    key: "use_locking"
    value {
      b: true
    }
  }
  attr {
    key: "validate_shape"
    value {
      b: true
    }
  }
}
node {
  name: "save/Assign_3"
  op: "Assign"
  input: "linear/linear_model/Well_Name_embedding/embedding_weights/part_0/Ftrl_1"
  input: "save/RestoreV2:3"
  attr {
    key: "T"
    value {
      type: DT_FLOAT
    }
  }
  attr {
    key: "_class"
    value {
      list {
        s: "loc:@linear/linear_model/Well_Name_embedding/embedding_weights/part_0"
      }
    }
  }
  attr {
    key: "_output_shapes"
    value {
      list {
        shape {
          dim {
            size: 8
          }
          dim {
            size: 79
          }
        }
      }
    }
  }
  attr {
    key: "use_locking"
    value {
      b: true
    }
  }
  attr {
    key: "validate_shape"
    value {
      b: true
    }
  }
}
node {
  name: "save/restore_shard"
  op: "NoOp"
  input: "^save/Assign"
  input: "^save/Assign_1"
  input: "^save/Assign_2"
  input: "^save/Assign_3"
}
node {
  name: "save/RestoreV2_1/tensor_names"
  op: "Const"
  device: "/device:CPU:0"
  attr {
    key: "_output_shapes"
    value {
      list {
        shape {
          dim {
            size: 25
          }
        }
      }
    }
  }
  attr {
    key: "dtype"
    value {
      type: DT_STRING
    }
  }
  attr {
    key: "value"
    value {
      tensor {
        dtype: DT_STRING
        tensor_shape {
          dim {
            size: 25
          }
        }
        string_val: "dnn/hiddenlayer_0/bias"
        string_val: "dnn/hiddenlayer_0/bias/Adagrad"
        string_val: "dnn/hiddenlayer_0/kernel"
        string_val: "dnn/hiddenlayer_0/kernel/Adagrad"
        string_val: "dnn/hiddenlayer_1/bias"
        string_val: "dnn/hiddenlayer_1/bias/Adagrad"
        string_val: "dnn/hiddenlayer_1/kernel"
        string_val: "dnn/hiddenlayer_1/kernel/Adagrad"
        string_val: "dnn/hiddenlayer_2/bias"
        string_val: "dnn/hiddenlayer_2/bias/Adagrad"
        string_val: "dnn/hiddenlayer_2/kernel"
        string_val: "dnn/hiddenlayer_2/kernel/Adagrad"
        string_val: "dnn/logits/bias"
        string_val: "dnn/logits/bias/Adagrad"
        string_val: "dnn/logits/kernel"
        string_val: "dnn/logits/kernel/Adagrad"
        string_val: "linear/linear_model/NM_M/weights"
        string_val: "linear/linear_model/NM_M/weights/Ftrl"
        string_val: "linear/linear_model/NM_M/weights/Ftrl_1"
        string_val: "linear/linear_model/Well_Name_embedding/weights"
        string_val: "linear/linear_model/Well_Name_embedding/weights/Ftrl"
        string_val: "linear/linear_model/Well_Name_embedding/weights/Ftrl_1"
        string_val: "linear/linear_model/bias_weights"
        string_val: "linear/linear_model/bias_weights/Ftrl"
        string_val: "linear/linear_model/bias_weights/Ftrl_1"
      }
    }
  }
}
node {
  name: "save/RestoreV2_1/shape_and_slices"
  op: "Const"
  device: "/device:CPU:0"
  attr {
    key: "_output_shapes"
    value {
      list {
        shape {
          dim {
            size: 25
          }
        }
      }
    }
  }
  attr {
    key: "dtype"
    value {
      type: DT_STRING
    }
  }
  attr {
    key: "value"
    value {
      tensor {
        dtype: DT_STRING
        tensor_shape {
          dim {
            size: 25
          }
        }
        string_val: "500 0,500"
        string_val: "500 0,500"
        string_val: "7 500 0,7:0,500"
        string_val: "7 500 0,7:0,500"
        string_val: "400 0,400"
        string_val: "400 0,400"
        string_val: "500 400 0,500:0,400"
        string_val: "500 400 0,500:0,400"
        string_val: "300 0,300"
        string_val: "300 0,300"
        string_val: "400 300 0,400:0,300"
        string_val: "400 300 0,400:0,300"
        string_val: "9 0,9"
        string_val: "9 0,9"
        string_val: "300 9 0,300:0,9"
        string_val: "300 9 0,300:0,9"
        string_val: "17336 9 0,17336:0,9"
        string_val: "17336 9 0,17336:0,9"
        string_val: "17336 9 0,17336:0,9"
        string_val: "79 9 0,79:0,9"
        string_val: "79 9 0,79:0,9"
        string_val: "79 9 0,79:0,9"
        string_val: "9 0,9"
        string_val: "9 0,9"
        string_val: "9 0,9"
      }
    }
  }
}
node {
  name: "save/RestoreV2_1"
  op: "RestoreV2"
  input: "save/Const"
  input: "save/RestoreV2_1/tensor_names"
  input: "save/RestoreV2_1/shape_and_slices"
  device: "/device:CPU:0"
  attr {
    key: "_output_shapes"
    value {
      list {
        shape {
          dim {
            size: 500
          }
        }
        shape {
          dim {
            size: 500
          }
        }
        shape {
          dim {
            size: 7
          }
          dim {
            size: 500
          }
        }
        shape {
          dim {
            size: 7
          }
          dim {
            size: 500
          }
        }
        shape {
          dim {
            size: 400
          }
        }
        shape {
          dim {
            size: 400
          }
        }
        shape {
          dim {
            size: 500
          }
          dim {
            size: 400
          }
        }
        shape {
          dim {
            size: 500
          }
          dim {
            size: 400
          }
        }
        shape {
          dim {
            size: 300
          }
        }
        shape {
          dim {
            size: 300
          }
        }
        shape {
          dim {
            size: 400
          }
          dim {
            size: 300
          }
        }
        shape {
          dim {
            size: 400
          }
          dim {
            size: 300
          }
        }
        shape {
          dim {
            size: 9
          }
        }
        shape {
          dim {
            size: 9
          }
        }
        shape {
          dim {
            size: 300
          }
          dim {
            size: 9
          }
        }
        shape {
          dim {
            size: 300
          }
          dim {
            size: 9
          }
        }
        shape {
          dim {
            size: 17336
          }
          dim {
            size: 9
          }
        }
        shape {
          dim {
            size: 17336
          }
          dim {
            size: 9
          }
        }
        shape {
          dim {
            size: 17336
          }
          dim {
            size: 9
          }
        }
        shape {
          dim {
            size: 79
          }
          dim {
            size: 9
          }
        }
        shape {
          dim {
            size: 79
          }
          dim {
            size: 9
          }
        }
        shape {
          dim {
            size: 79
          }
          dim {
            size: 9
          }
        }
        shape {
          dim {
            size: 9
          }
        }
        shape {
          dim {
            size: 9
          }
        }
        shape {
          dim {
            size: 9
          }
        }
      }
    }
  }
  attr {
    key: "dtypes"
    value {
      list {
        type: DT_FLOAT
        type: DT_FLOAT
        type: DT_FLOAT
        type: DT_FLOAT
        type: DT_FLOAT
        type: DT_FLOAT
        type: DT_FLOAT
        type: DT_FLOAT
        type: DT_FLOAT
        type: DT_FLOAT
        type: DT_FLOAT
        type: DT_FLOAT
        type: DT_FLOAT
        type: DT_FLOAT
        type: DT_FLOAT
        type: DT_FLOAT
        type: DT_FLOAT
        type: DT_FLOAT
        type: DT_FLOAT
        type: DT_FLOAT
        type: DT_FLOAT
        type: DT_FLOAT
        type: DT_FLOAT
        type: DT_FLOAT
        type: DT_FLOAT
      }
    }
  }
}
node {
  name: "save/Identity_101"
  op: "Identity"
  input: "save/RestoreV2_1"
  device: "/device:CPU:0"
  attr {
    key: "T"
    value {
      type: DT_FLOAT
    }
  }
  attr {
    key: "_output_shapes"
    value {
      list {
        shape {
          dim {
            size: 500
          }
        }
      }
    }
  }
}
node {
  name: "save/AssignVariableOp"
  op: "AssignVariableOp"
  input: "dnn/hiddenlayer_0/bias/part_0"
  input: "save/Identity_101"
  device: "/device:CPU:0"
  attr {
    key: "dtype"
    value {
      type: DT_FLOAT
    }
  }
}
node {
  name: "save/Identity_102"
  op: "Identity"
  input: "save/RestoreV2_1:1"
  device: "/device:CPU:0"
  attr {
    key: "T"
    value {
      type: DT_FLOAT
    }
  }
  attr {
    key: "_output_shapes"
    value {
      list {
        shape {
          dim {
            size: 500
          }
        }
      }
    }
  }
}
node {
  name: "save/AssignVariableOp_1"
  op: "AssignVariableOp"
  input: "dnn/hiddenlayer_0/bias/part_0/Adagrad"
  input: "save/Identity_102"
  device: "/device:CPU:0"
  attr {
    key: "dtype"
    value {
      type: DT_FLOAT
    }
  }
}
node {
  name: "save/Identity_103"
  op: "Identity"
  input: "save/RestoreV2_1:2"
  device: "/device:CPU:0"
  attr {
    key: "T"
    value {
      type: DT_FLOAT
    }
  }
  attr {
    key: "_output_shapes"
    value {
      list {
        shape {
          dim {
            size: 7
          }
          dim {
            size: 500
          }
        }
      }
    }
  }
}
node {
  name: "save/AssignVariableOp_2"
  op: "AssignVariableOp"
  input: "dnn/hiddenlayer_0/kernel/part_0"
  input: "save/Identity_103"
  device: "/device:CPU:0"
  attr {
    key: "dtype"
    value {
      type: DT_FLOAT
    }
  }
}
node {
  name: "save/Identity_104"
  op: "Identity"
  input: "save/RestoreV2_1:3"
  device: "/device:CPU:0"
  attr {
    key: "T"
    value {
      type: DT_FLOAT
    }
  }
  attr {
    key: "_output_shapes"
    value {
      list {
        shape {
          dim {
            size: 7
          }
          dim {
            size: 500
          }
        }
      }
    }
  }
}
node {
  name: "save/AssignVariableOp_3"
  op: "AssignVariableOp"
  input: "dnn/hiddenlayer_0/kernel/part_0/Adagrad"
  input: "save/Identity_104"
  device: "/device:CPU:0"
  attr {
    key: "dtype"
    value {
      type: DT_FLOAT
    }
  }
}
node {
  name: "save/Identity_105"
  op: "Identity"
  input: "save/RestoreV2_1:4"
  device: "/device:CPU:0"
  attr {
    key: "T"
    value {
      type: DT_FLOAT
    }
  }
  attr {
    key: "_output_shapes"
    value {
      list {
        shape {
          dim {
            size: 400
          }
        }
      }
    }
  }
}
node {
  name: "save/AssignVariableOp_4"
  op: "AssignVariableOp"
  input: "dnn/hiddenlayer_1/bias/part_0"
  input: "save/Identity_105"
  device: "/device:CPU:0"
  attr {
    key: "dtype"
    value {
      type: DT_FLOAT
    }
  }
}
node {
  name: "save/Identity_106"
  op: "Identity"
  input: "save/RestoreV2_1:5"
  device: "/device:CPU:0"
  attr {
    key: "T"
    value {
      type: DT_FLOAT
    }
  }
  attr {
    key: "_output_shapes"
    value {
      list {
        shape {
          dim {
            size: 400
          }
        }
      }
    }
  }
}
node {
  name: "save/AssignVariableOp_5"
  op: "AssignVariableOp"
  input: "dnn/hiddenlayer_1/bias/part_0/Adagrad"
  input: "save/Identity_106"
  device: "/device:CPU:0"
  attr {
    key: "dtype"
    value {
      type: DT_FLOAT
    }
  }
}
node {
  name: "save/Identity_107"
  op: "Identity"
  input: "save/RestoreV2_1:6"
  device: "/device:CPU:0"
  attr {
    key: "T"
    value {
      type: DT_FLOAT
    }
  }
  attr {
    key: "_output_shapes"
    value {
      list {
        shape {
          dim {
            size: 500
          }
          dim {
            size: 400
          }
        }
      }
    }
  }
}
node {
  name: "save/AssignVariableOp_6"
  op: "AssignVariableOp"
  input: "dnn/hiddenlayer_1/kernel/part_0"
  input: "save/Identity_107"
  device: "/device:CPU:0"
  attr {
    key: "dtype"
    value {
      type: DT_FLOAT
    }
  }
}
node {
  name: "save/Identity_108"
  op: "Identity"
  input: "save/RestoreV2_1:7"
  device: "/device:CPU:0"
  attr {
    key: "T"
    value {
      type: DT_FLOAT
    }
  }
  attr {
    key: "_output_shapes"
    value {
      list {
        shape {
          dim {
            size: 500
          }
          dim {
            size: 400
          }
        }
      }
    }
  }
}
node {
  name: "save/AssignVariableOp_7"
  op: "AssignVariableOp"
  input: "dnn/hiddenlayer_1/kernel/part_0/Adagrad"
  input: "save/Identity_108"
  device: "/device:CPU:0"
  attr {
    key: "dtype"
    value {
      type: DT_FLOAT
    }
  }
}
node {
  name: "save/Identity_109"
  op: "Identity"
  input: "save/RestoreV2_1:8"
  device: "/device:CPU:0"
  attr {
    key: "T"
    value {
      type: DT_FLOAT
    }
  }
  attr {
    key: "_output_shapes"
    value {
      list {
        shape {
          dim {
            size: 300
          }
        }
      }
    }
  }
}
node {
  name: "save/AssignVariableOp_8"
  op: "AssignVariableOp"
  input: "dnn/hiddenlayer_2/bias/part_0"
  input: "save/Identity_109"
  device: "/device:CPU:0"
  attr {
    key: "dtype"
    value {
      type: DT_FLOAT
    }
  }
}
node {
  name: "save/Identity_110"
  op: "Identity"
  input: "save/RestoreV2_1:9"
  device: "/device:CPU:0"
  attr {
    key: "T"
    value {
      type: DT_FLOAT
    }
  }
  attr {
    key: "_output_shapes"
    value {
      list {
        shape {
          dim {
            size: 300
          }
        }
      }
    }
  }
}
node {
  name: "save/AssignVariableOp_9"
  op: "AssignVariableOp"
  input: "dnn/hiddenlayer_2/bias/part_0/Adagrad"
  input: "save/Identity_110"
  device: "/device:CPU:0"
  attr {
    key: "dtype"
    value {
      type: DT_FLOAT
    }
  }
}
node {
  name: "save/Identity_111"
  op: "Identity"
  input: "save/RestoreV2_1:10"
  device: "/device:CPU:0"
  attr {
    key: "T"
    value {
      type: DT_FLOAT
    }
  }
  attr {
    key: "_output_shapes"
    value {
      list {
        shape {
          dim {
            size: 400
          }
          dim {
            size: 300
          }
        }
      }
    }
  }
}
node {
  name: "save/AssignVariableOp_10"
  op: "AssignVariableOp"
  input: "dnn/hiddenlayer_2/kernel/part_0"
  input: "save/Identity_111"
  device: "/device:CPU:0"
  attr {
    key: "dtype"
    value {
      type: DT_FLOAT
    }
  }
}
node {
  name: "save/Identity_112"
  op: "Identity"
  input: "save/RestoreV2_1:11"
  device: "/device:CPU:0"
  attr {
    key: "T"
    value {
      type: DT_FLOAT
    }
  }
  attr {
    key: "_output_shapes"
    value {
      list {
        shape {
          dim {
            size: 400
          }
          dim {
            size: 300
          }
        }
      }
    }
  }
}
node {
  name: "save/AssignVariableOp_11"
  op: "AssignVariableOp"
  input: "dnn/hiddenlayer_2/kernel/part_0/Adagrad"
  input: "save/Identity_112"
  device: "/device:CPU:0"
  attr {
    key: "dtype"
    value {
      type: DT_FLOAT
    }
  }
}
node {
  name: "save/Identity_113"
  op: "Identity"
  input: "save/RestoreV2_1:12"
  device: "/device:CPU:0"
  attr {
    key: "T"
    value {
      type: DT_FLOAT
    }
  }
  attr {
    key: "_output_shapes"
    value {
      list {
        shape {
          dim {
            size: 9
          }
        }
      }
    }
  }
}
node {
  name: "save/AssignVariableOp_12"
  op: "AssignVariableOp"
  input: "dnn/logits/bias/part_0"
  input: "save/Identity_113"
  device: "/device:CPU:0"
  attr {
    key: "dtype"
    value {
      type: DT_FLOAT
    }
  }
}
node {
  name: "save/Identity_114"
  op: "Identity"
  input: "save/RestoreV2_1:13"
  device: "/device:CPU:0"
  attr {
    key: "T"
    value {
      type: DT_FLOAT
    }
  }
  attr {
    key: "_output_shapes"
    value {
      list {
        shape {
          dim {
            size: 9
          }
        }
      }
    }
  }
}
node {
  name: "save/AssignVariableOp_13"
  op: "AssignVariableOp"
  input: "dnn/logits/bias/part_0/Adagrad"
  input: "save/Identity_114"
  device: "/device:CPU:0"
  attr {
    key: "dtype"
    value {
      type: DT_FLOAT
    }
  }
}
node {
  name: "save/Identity_115"
  op: "Identity"
  input: "save/RestoreV2_1:14"
  device: "/device:CPU:0"
  attr {
    key: "T"
    value {
      type: DT_FLOAT
    }
  }
  attr {
    key: "_output_shapes"
    value {
      list {
        shape {
          dim {
            size: 300
          }
          dim {
            size: 9
          }
        }
      }
    }
  }
}
node {
  name: "save/AssignVariableOp_14"
  op: "AssignVariableOp"
  input: "dnn/logits/kernel/part_0"
  input: "save/Identity_115"
  device: "/device:CPU:0"
  attr {
    key: "dtype"
    value {
      type: DT_FLOAT
    }
  }
}
node {
  name: "save/Identity_116"
  op: "Identity"
  input: "save/RestoreV2_1:15"
  device: "/device:CPU:0"
  attr {
    key: "T"
    value {
      type: DT_FLOAT
    }
  }
  attr {
    key: "_output_shapes"
    value {
      list {
        shape {
          dim {
            size: 300
          }
          dim {
            size: 9
          }
        }
      }
    }
  }
}
node {
  name: "save/AssignVariableOp_15"
  op: "AssignVariableOp"
  input: "dnn/logits/kernel/part_0/Adagrad"
  input: "save/Identity_116"
  device: "/device:CPU:0"
  attr {
    key: "dtype"
    value {
      type: DT_FLOAT
    }
  }
}
node {
  name: "save/Identity_117"
  op: "Identity"
  input: "save/RestoreV2_1:16"
  device: "/device:CPU:0"
  attr {
    key: "T"
    value {
      type: DT_FLOAT
    }
  }
  attr {
    key: "_output_shapes"
    value {
      list {
        shape {
          dim {
            size: 17336
          }
          dim {
            size: 9
          }
        }
      }
    }
  }
}
node {
  name: "save/AssignVariableOp_16"
  op: "AssignVariableOp"
  input: "linear/linear_model/NM_M/weights/part_0"
  input: "save/Identity_117"
  device: "/device:CPU:0"
  attr {
    key: "dtype"
    value {
      type: DT_FLOAT
    }
  }
}
node {
  name: "save/Identity_118"
  op: "Identity"
  input: "save/RestoreV2_1:17"
  device: "/device:CPU:0"
  attr {
    key: "T"
    value {
      type: DT_FLOAT
    }
  }
  attr {
    key: "_output_shapes"
    value {
      list {
        shape {
          dim {
            size: 17336
          }
          dim {
            size: 9
          }
        }
      }
    }
  }
}
node {
  name: "save/AssignVariableOp_17"
  op: "AssignVariableOp"
  input: "linear/linear_model/NM_M/weights/part_0/Ftrl"
  input: "save/Identity_118"
  device: "/device:CPU:0"
  attr {
    key: "dtype"
    value {
      type: DT_FLOAT
    }
  }
}
node {
  name: "save/Identity_119"
  op: "Identity"
  input: "save/RestoreV2_1:18"
  device: "/device:CPU:0"
  attr {
    key: "T"
    value {
      type: DT_FLOAT
    }
  }
  attr {
    key: "_output_shapes"
    value {
      list {
        shape {
          dim {
            size: 17336
          }
          dim {
            size: 9
          }
        }
      }
    }
  }
}
node {
  name: "save/AssignVariableOp_18"
  op: "AssignVariableOp"
  input: "linear/linear_model/NM_M/weights/part_0/Ftrl_1"
  input: "save/Identity_119"
  device: "/device:CPU:0"
  attr {
    key: "dtype"
    value {
      type: DT_FLOAT
    }
  }
}
node {
  name: "save/Identity_120"
  op: "Identity"
  input: "save/RestoreV2_1:19"
  device: "/device:CPU:0"
  attr {
    key: "T"
    value {
      type: DT_FLOAT
    }
  }
  attr {
    key: "_output_shapes"
    value {
      list {
        shape {
          dim {
            size: 79
          }
          dim {
            size: 9
          }
        }
      }
    }
  }
}
node {
  name: "save/AssignVariableOp_19"
  op: "AssignVariableOp"
  input: "linear/linear_model/Well_Name_embedding/weights/part_0"
  input: "save/Identity_120"
  device: "/device:CPU:0"
  attr {
    key: "dtype"
    value {
      type: DT_FLOAT
    }
  }
}
node {
  name: "save/Identity_121"
  op: "Identity"
  input: "save/RestoreV2_1:20"
  device: "/device:CPU:0"
  attr {
    key: "T"
    value {
      type: DT_FLOAT
    }
  }
  attr {
    key: "_output_shapes"
    value {
      list {
        shape {
          dim {
            size: 79
          }
          dim {
            size: 9
          }
        }
      }
    }
  }
}
node {
  name: "save/AssignVariableOp_20"
  op: "AssignVariableOp"
  input: "linear/linear_model/Well_Name_embedding/weights/part_0/Ftrl"
  input: "save/Identity_121"
  device: "/device:CPU:0"
  attr {
    key: "dtype"
    value {
      type: DT_FLOAT
    }
  }
}
node {
  name: "save/Identity_122"
  op: "Identity"
  input: "save/RestoreV2_1:21"
  device: "/device:CPU:0"
  attr {
    key: "T"
    value {
      type: DT_FLOAT
    }
  }
  attr {
    key: "_output_shapes"
    value {
      list {
        shape {
          dim {
            size: 79
          }
          dim {
            size: 9
          }
        }
      }
    }
  }
}
node {
  name: "save/AssignVariableOp_21"
  op: "AssignVariableOp"
  input: "linear/linear_model/Well_Name_embedding/weights/part_0/Ftrl_1"
  input: "save/Identity_122"
  device: "/device:CPU:0"
  attr {
    key: "dtype"
    value {
      type: DT_FLOAT
    }
  }
}
node {
  name: "save/Identity_123"
  op: "Identity"
  input: "save/RestoreV2_1:22"
  device: "/device:CPU:0"
  attr {
    key: "T"
    value {
      type: DT_FLOAT
    }
  }
  attr {
    key: "_output_shapes"
    value {
      list {
        shape {
          dim {
            size: 9
          }
        }
      }
    }
  }
}
node {
  name: "save/AssignVariableOp_22"
  op: "AssignVariableOp"
  input: "linear/linear_model/bias_weights/part_0"
  input: "save/Identity_123"
  device: "/device:CPU:0"
  attr {
    key: "dtype"
    value {
      type: DT_FLOAT
    }
  }
}
node {
  name: "save/Identity_124"
  op: "Identity"
  input: "save/RestoreV2_1:23"
  device: "/device:CPU:0"
  attr {
    key: "T"
    value {
      type: DT_FLOAT
    }
  }
  attr {
    key: "_output_shapes"
    value {
      list {
        shape {
          dim {
            size: 9
          }
        }
      }
    }
  }
}
node {
  name: "save/AssignVariableOp_23"
  op: "AssignVariableOp"
  input: "linear/linear_model/bias_weights/part_0/Ftrl"
  input: "save/Identity_124"
  device: "/device:CPU:0"
  attr {
    key: "dtype"
    value {
      type: DT_FLOAT
    }
  }
}
node {
  name: "save/Identity_125"
  op: "Identity"
  input: "save/RestoreV2_1:24"
  device: "/device:CPU:0"
  attr {
    key: "T"
    value {
      type: DT_FLOAT
    }
  }
  attr {
    key: "_output_shapes"
    value {
      list {
        shape {
          dim {
            size: 9
          }
        }
      }
    }
  }
}
node {
  name: "save/AssignVariableOp_24"
  op: "AssignVariableOp"
  input: "linear/linear_model/bias_weights/part_0/Ftrl_1"
  input: "save/Identity_125"
  device: "/device:CPU:0"
  attr {
    key: "dtype"
    value {
      type: DT_FLOAT
    }
  }
}
node {
  name: "save/restore_shard_1"
  op: "NoOp"
  input: "^save/AssignVariableOp"
  input: "^save/AssignVariableOp_1"
  input: "^save/AssignVariableOp_10"
  input: "^save/AssignVariableOp_11"
  input: "^save/AssignVariableOp_12"
  input: "^save/AssignVariableOp_13"
  input: "^save/AssignVariableOp_14"
  input: "^save/AssignVariableOp_15"
  input: "^save/AssignVariableOp_16"
  input: "^save/AssignVariableOp_17"
  input: "^save/AssignVariableOp_18"
  input: "^save/AssignVariableOp_19"
  input: "^save/AssignVariableOp_2"
  input: "^save/AssignVariableOp_20"
  input: "^save/AssignVariableOp_21"
  input: "^save/AssignVariableOp_22"
  input: "^save/AssignVariableOp_23"
  input: "^save/AssignVariableOp_24"
  input: "^save/AssignVariableOp_3"
  input: "^save/AssignVariableOp_4"
  input: "^save/AssignVariableOp_5"
  input: "^save/AssignVariableOp_6"
  input: "^save/AssignVariableOp_7"
  input: "^save/AssignVariableOp_8"
  input: "^save/AssignVariableOp_9"
  device: "/device:CPU:0"
}
node {
  name: "save/restore_all/NoOp"
  op: "NoOp"
  input: "^save/restore_shard"
}
node {
  name: "save/restore_all/NoOp_1"
  op: "NoOp"
  input: "^save/restore_shard_1"
  device: "/device:CPU:0"
}
node {
  name: "save/restore_all"
  op: "NoOp"
  input: "^save/restore_all/NoOp"
  input: "^save/restore_all/NoOp_1"
}
versions {
  producer: 27
}
